output/FCNet/model.pkl (torch, 953141 bytes, 14 tensors)

weight f4 [256, 784]
-0.022700122 -0.033195578 -0.017648773 -0.035653792 -0.031372402 -0.0024571647 0.014578444 -0.010675912
0.014919502 0.03214221 -0.02163578 -0.021518419 -0.0017462301 -0.016795387 -0.022865431 -0.035556458
0.0027495357 -0.0016185346 0.014295132 0.005337369 -0.025127986 0.0063932356 -0.0015862065 -0.034211233
0.0055042324 -0.021451281 0.011872088 -0.004302665 0.01066839 -0.030800743 0.01831351 0.026277518
0.019826634 0.06841718 0.030272437 -0.045937445 -0.036495794 -0.04706875 0.0742277 0.07821169
0.09186873 0.13342589 0.12704003 0.04842401 -0.089415826 0.0042109676 -0.060442306 0.09559676
0.10898329 0.13222438 0.1130028 0.088274255 0.0022450085 0.014883288 0.009676178 0.011135907
-0.012645614 0.0021692174 0.021653635 -0.007017113 0.005040065 -0.004660569 -0.084084876 0.057028294
0.04505931 0.25306413 0.23192446 0.207194 0.114166506 0.10130503 0.10208662 0.019638162
-0.19175309 -0.12498208 -0.116280906 0.13706197 0.26181853 0.14443588 0.058922585 0.023128163
-0.094557434 -0.12970407 -0.011902367 0.015349721 -0.016036166 0.012429942 0.018346256 0.21844919
0.041487664 0.044669047 0.031918064 -0.011072891 0.034257118 0.008071167 -0.11727961 -0.08619847
0.03176407 0.03725165 -0.07523043 -0.18404464 -0.19437604 -0.17350255 -0.14359415 -0.14537074
0.07731876 -0.23936272 -0.015257613 -0.11807689 0.23990764 -0.0014126146 -0.0025572446 0.0016920266
-0.0151247 -0.009988734 0.05855871 0.04192747 -0.18975435 0.055155832 0.06051726 -0.04163665
0.23181437 0.14380327 0.10207412 0.113078974 0.025203917 -0.2164191 -0.2970037 -0.13996448
-0.01953853 -0.22608675 -0.3138076 -0.0822473 -0.117928274 0.13585134 -0.024648417 -0.13481386
0.006599091 -0.04759323 -0.16650233 0.023040982 0.0057754857 0.007705216 -0.01566907 -0.23789708
-0.07883675 -0.06783185 -0.02099004 0.04715394 -0.021276983 0.022312347 0.11754441 0.16711701
0.02549079 -0.09489317 -0.08398723 -0.09518611 -0.12792666 -0.17458452 -0.10507572 -0.19268002
0.06784747 0.05273166 0.12416421 0.085775204 0.24405493 0.2710392 0.26892477 0.027496649
0.0041541946 0.020716378 -0.049629625 -0.15097864 -0.056779504 0.012339439 -0.092270784 -0.13314074
-0.12249256 -0.16141173 -0.082909845 0.021614037 0.030626744 -0.06723061 0.08189911 -0.18332918
-0.05083174 -0.18021843 -0.097979605 -0.06274014 -0.044933233 0.048221126 -0.061909117 0.18931827
0.022564655 0.1977692 0.2787196 -0.1300274 -0.034443595 -0.16467199 -0.088538736 -0.08873503
0.09722708 0.067969635 -0.10267611 -0.12093181 -0.1202514 -0.16861692 -0.13042752 0.073401086
-0.00085056806 -0.005129903 0.0681752 0.020104228 -0.11389396 -0.10778927 -0.1326065 -0.13961354
0.105097935 -0.045147944 0.094593704 -0.07292573 0.051452897 0.04046556 0.16918753 -0.11185284
0.009387073 -0.24842201 -0.11060178 -0.20231625 -0.021980962 -0.05302444 -0.07238146 -0.088457644
-0.099000975 -0.021815844 0.122411214 0.008608517 -0.039964564 -0.071660176 -0.045606546 -0.055792514
-0.14278625 0.061300255 0.07436506 0.1051554 0.1408734 -0.04687594 -0.17474209 -0.15981448
-0.09042525 -0.02594928 0.10486696 -0.02584274 0.009445294 -0.14542896 -0.11668713 -0.19597714
00000000: 9bf5 b9bc 16f8 07bd 2994 90bc b609 12bd
00000010: 5980 00bd 6208 21bb 6dda 6e3c 05ea 2ebc
00000020: ed70 743c 8da7 033d 853d b1bc 6547 b0bc
00000030: c2e1 e4ba 7b96 89bc 4950 bbbc a6a3 11bd
00000040: 8e31 343b 0225 d4ba 2136 6a3c 19e5 ae3b
00000050: 35d9 cdbc 597e d13b 42e8 cfba 1421 0cbd
00000060: d95c b43b 99ba afbc 2583 423c 5ffd 8cbb
00000070: 79ca 2e3c d751 fcbc 3706 963c f343 d73c
00000080: 776b a23c 4e1e 8c3d e7fd f73c e728 3cbd
00000090: 9d7c 15bd 29cb 40bd b104 983d 732d a03d
000000a0: ac25 bc3d cca0 083e c816 023e 4158 463d
000000b0: a51f b7bd 28fc 893b 5a92 77bd 3cc8 c33d
000000c0: a232 df3d d465 073e 036e e73d 22c9 b43d
000000d0: fe20 133b 09d9 733c d588 1e3c 6173 363c
000000e0: 8d2f 4fbc 6e29 0e3b f762 b13c cfef e5bb
000000f0: 2127 a53b b0b7 98bb b134 acbd 8096 693d
00000100: 1c90 383d 9f91 813e 9b7d 6d3e aa2a 543e
00000110: 21d0 e93d 0379 cf3d ca12 d13d 36e0 a03c
00000120: ec5a 44be 9bf6 ffbd af24 eebd f959 0c3e
00000130: 140d 863e 00e7 133e cf58 713d 4677 bd3c
00000140: 54a7 c1bd 25d1 04be 2502 43bc 657d 7b3c
00000150: 475e 83bc f5a6 4b3c e34a 963c 25b1 5f3e
00000160: f8ee 293d e4f6 363d 84bc 023d 126b 35bc
00000170: 3151 0c3d ee3c 043c 4b30 f0bd d388 b0bd
00000180: 0b1b 023d 3095 183d 6912 9abd 3376 3cbe
00000190: 830a 47be a7aa 31be 580a 13be 11dc 14be
000001a0: 4c59 9e3d 801b 75be 11fb 79bc 4cd2 f1bd
000001b0: 59aa 753e 7b27 b9ba 7297 27bb fec6 dd3a
000001c0: 97cd 77bc c9a7 23bc 42db 6f3d 24bc 2b3d
000001d0: f74e 42be 15eb 613d f2e0 773d 318b 2abd
000001e0: bf60 6d3e 2a41 133e 3c0c d13d f395 e73d
000001f0: 7278 ce3c f89c 5dbe de10 98be d952 0fbe
00000200: 440f a0bc 4983 67be 64ab a0be 4671 a8bd
00000210: 6184 f1bd 9d1c 0b3e 7aeb c9bc a50c 0abe
00000220: 303d d83b 1ef1 42bd 967f 2abe 71c0 bc3c
00000230: 4940 bd3b 097c fc3b 6c5c 80bc 4b9b 73be
00000240: 2975 a1bd 6deb 8abd 4ef3 abbc 7d24 413d
00000250: 114d aebc 62c8 b63c 20bb f03d b920 2b3e
00000260: 10d2 d03c 5a57 c2bd 7f01 acbd eff0 c2bd
00000270: 35ff 02be 49c6 32be f031 d7bd e94d 45be
00000280: 9df3 8a3d 27fd 573d ce49 fe3d e9aa af3d
00000290: 89e9 793e a6c5 8a3e 82b0 893e a740 e13c
000002a0: e91f 883b 65b5 a93c 6f48 4bbd 259a 1abe
000002b0: a091 68bd 5c2b 4a3c 77f8 bcbd 0c56 08be
000002c0: 61dd fabd 1e49 25be a3cc a9bd ec0f b13c
000002d0: f0e4 fa3c 34b0 89bd b8ba a73d a5ba 3bbe
000002e0: f134 50bd 2e8b 38be 88a9 c8bd e77d 80bd
000002f0: e90b 38bd 8483 453d 6a94 7dbd a6dc 413e
00000300: 83d9 b83c 0284 4a3e 56b4 8e3e e725 05be
00000310: ba14 0dbd c69f 28be cc53 b5bd b6ba b5bd
00000320: fe1e c73d aa33 8b3d da47 d2bd 19ab f7bd
00000330: 5e46 f6bd eaa9 2cbe cb8e 05be 4f53 963d
00000340: a8f8 5eba bf18 a8bb 709f 8b3d 9fb1 a43c
00000350: 3d41 e9bd 9fc0 dcbd 00ca 07be daf6 0ebe
00000360: 963d d73d 0ded 38bd 58ba c13d 165a 95bd
00000370: 46c0 523d 37bf 253d 7f3f 2d3e 1a13 e5bd
00000380: 3dcc 193c 5762 7ebe 3083 e2bd fe2b 4fbe
00000390: 6b11 b4bc 2830 59bd bb3c 94bd 4829 b5bd
000003a0: 06c1 cabd 24b7 b2bc bbb2 fa3d bd0a 0d3c
000003b0: e2b1 23bd 92c2 92bd eecd 3abd b186 64bd
000003c0: 8f36 12be fa15 7b3d b54c 983d b75b d73d
000003d0: 1e41 103e fc00 40bd 97ef 32be 68a6 23be
000003e0: e030 b9bd 9693 d4bc 7dc4 d63d 27b4 d3bc
000003f0: 6fc0 1a3c 54eb 14be a9f9 eebd 3bae 48be

bias f4 [256]
0.011664574 0.0020322478 -0.025780726 0.028561573 0.010362767 0.0176554 -0.017965496 -0.027768375
-0.030818136 -0.0236531 0.0033815661 0.0038716057 -0.005737395 -0.019552156 -0.009189421 0.0081314305
-0.014545102 0.014650952 0.015134137 -0.0022288586 -0.001653018 -0.034875058 -0.030018413 -0.029996779
0.005197035 0.010948297 -0.0171916 0.0056361165 -0.021900471 -0.0013682556 -0.03469766 -0.0083416905
0.015476851 0.005402636 0.017635573 -0.02130204 -0.030806858 0.031169215 0.02724608 -0.033227537
0.018185597 0.00043322824 -0.024055745 -0.026317809 -0.014434672 0.0068664225 0.021917788 -0.00926432
0.024554731 -0.0020003524 0.0069193416 -0.013804747 0.004501507 0.013404568 0.014560356 -0.028639752
0.015680876 -0.031236062 -0.016000364 0.016695376 -0.024350377 0.01565124 0.026897427 -0.009699031
0.004842793 0.035545323 0.020400507 -0.028177107 0.008860932 0.004077491 -0.024113117 0.020190561
-0.0106045455 -0.026803413 -0.01668675 0.008241777 0.033335876 -0.0056913407 0.014866484 -0.024215795
-0.017569134 -0.0019240413 -0.027186986 -0.020928094 0.033214998 -0.024115957 0.035397712 -0.0033197226
-0.013379372 0.026107168 -0.033799984 0.034868676 0.016583633 -0.030743547 -0.01687232 -0.0026987519
-0.0043758247 -0.022583352 -0.033935826 0.01564854 -0.032299682 -0.0043983054 0.010642757 0.0030598892
-0.031177375 0.014206166 -0.0021927094 -0.018875355 0.029397285 0.008607428 0.028469205 0.019540338
-0.029156284 0.016914753 -0.027582321 -0.0054677003 0.025372557 -0.017343754 0.02497809 0.032729886
-0.011385998 0.033029843 -0.026041249 0.022673689 -0.020429634 0.027167855 0.023631014 -0.029871799
0.015386157 -0.0069633066 -0.025717122 -0.0062049325 0.005038123 0.0052841264 0.005376601 -0.018527376
0.0154858325 -0.031281367 -0.021823926 -0.020394638 -0.01783022 -0.00088044436 -0.016756808 -0.0071764025
0.0014611088 0.0037264726 -0.001533217 0.025618982 -0.026106326 0.021508677 -0.029052092 -0.0072762924
-0.018515693 -0.015922189 -0.024817232 0.011176073 -0.012874722 -0.000989449 -0.03180172 -0.024689805
-0.0021338747 -0.008805582 0.02840894 0.02604721 0.02641566 0.018698165 -0.029311279 0.0045009176
-0.030433333 0.015704865 0.007724674 0.025183918 0.0047682743 -0.009948937 -0.028965188 0.008163596
-0.032319702 0.01892316 -0.030155001 0.01242015 -0.033810437 0.017694075 0.013617932 -0.023764703
-0.032315664 -0.02507831 -0.018956564 -0.033810876 0.032449614 0.0017451701 -0.025274063 -0.016393332
0.0015704765 0.029734394 -0.005297564 -0.0198555 0.009501536 -0.0035254085 -0.027622527 -0.019088963
-0.011502421 -0.030681675 0.016653096 0.013126978 0.030110573 0.019706745 -0.0095110545 0.015180633
-0.031847056 -0.0227141 0.0066271694 -0.02714356 0.0005379751 0.027471703 0.017258275 0.022887995
0.02719647 -0.0024426314 0.023905236 -0.009377039 -0.03554172 0.024838276 0.0009049349 -0.034708172
0.014241686 0.0013817677 -0.01620092 0.027594987 0.020707157 -0.002703189 -0.021482743 -0.012715209
-0.009397846 0.0069609317 -0.0010054111 0.033944674 0.03373574 0.001496811 -0.019838445 -0.014898428
-0.01042822 -0.01894472 0.0017299766 0.009646297 0.027746955 0.026785174 0.01324846 -0.00291536
-0.0060799127 -0.034779932 -0.022765383 -0.005739381 0.022619182 -0.0016820661 0.010834387 0.020108907
00000000: c51c 3f3c 762f 053b 1a32 d3bc f6f9 e93c
00000010: 98c8 293c 0fa2 903c 602c 93bc 817a e3bc
00000020: 5176 fcbc 25c4 c1bc 449d 5d3b c4ba 7d3b
00000030: c200 bcbb d82b a0bc 3a8f 16bc b139 053c
00000040: 944e 6ebc 8c0a 703c 2cf5 773c 0b12 12bb
00000050: 14aa d8ba 26d9 0ebd 2de9 f5bc cebb f5bc
00000060: e44b aa3b 7c60 333c 66d5 8cbc 2caf b83b
00000070: 9e68 b3bc 0a57 b3ba 221f 0ebd 96ab 08bc
00000080: 9e92 7d3c 9808 b13b 7a78 903c 9e81 aebc
00000090: aa5e fcbc 9556 ff3c 2c33 df3c 9919 08bd
000000a0: f6f9 943c e922 e339 8e10 c5bc 7298 d7bc
000000b0: 677f 6cbc baff e03b ef8c b33c 60c9 17bc
000000c0: 0127 c93c 5818 03bb a5bb e23b 4e2d 62bc
000000d0: 6181 933b d59e 5b3c 8f8e 6e3c ea9d eabc
000000e0: 2e75 803c c5e2 ffbc 3213 83bc bec4 883c
000000f0: 717a c7bc 0737 803c fe57 dc3c afe8 1ebc
00000100: 4bb0 9e3b f997 113d f71e a73c add3 e6bc
00000110: 712d 113c 799c 853b df88 c5bc ad66 a53c
00000120: b0be 2dbc d592 dbbc a7b2 88bc 8508 073c
00000130: 338b 083d 6d7e babb 8e92 733c 3460 c6bc
00000140: 25ed 8fbc 1d30 fcba 3eb7 debc 6571 abbc
00000150: 730c 083d d48e c5bc 31fd 103d b48f 59bb
00000160: 2735 5bbc b3de d53c da71 0abd 75d2 0e3d
00000170: 66da 873c e4d9 fbbc d237 8abc 8bdd 30bb
00000180: 1463 8fbb b900 b9bc 4b00 0bbd 5e31 803c
00000190: ac4c 04bd a91f 90bb f55e 2e3c 6c88 483b
000001a0: b267 ffbc fbc0 683c 8fb3 0fbb 7da0 9abc
000001b0: 93d2 f03c 2b06 0d3c 4038 e93c 0f13 a03c
000001c0: 29d9 eebc cf90 8a3c 52f4 e1bc 652a b3bb
000001d0: 1cda cf3c 7d14 8ebc da9e cc3c c60f 063d
000001e0: 568c 3abc 4d4a 073d 7554 d5bc 2cbe b93c
000001f0: 0c5c a7bc 1f8f de3c d495 c13c b4b5 f4bc
00000200: 3816 7c3c 732c e4bb b7ac d2bc bf52 cbbb
00000210: d716 a53b 7726 ad3b 332e b03b b9c6 97bc
00000220: 4ab8 7d3c e420 00bd 17c8 b2bc a812 a7bc
00000230: ae10 92bc 9fcd 66ba 9345 89bc 0728 ebbb
00000240: ad82 bf3a d637 743b 3af6 c8ba e6de d13c
00000250: efdc d5bc f732 b03c a7fe edbc f76d eebb
00000260: 39ae 97bc 406f 82bc 824d cbbc d91b 373c
00000270: 7ff0 52bc 66b0 81ba 8542 02bd 4642 cabc
00000280: 7ad8 0bbb 4a45 10bc deb9 e83c f560 d53c
00000290: a765 d83c e52c 993c 351e f0bc 6f7c 933b
000002a0: 534f f9bc 7da7 803c 431f fd3b 814e ce3c
000002b0: 2f3f 9c3b de00 23bc 6748 edbc 9ac0 053c
000002c0: aa61 04bd be04 9b3c 9f07 f7bc e37d 4b3c
000002d0: d07c 0abd 2af3 903c bf1d 5f3c 32ae c2bc
000002e0: 6e5d 04bd 0771 cdbc cc4a 9bbc 467d 0abd
000002f0: e3e9 043d 31be e43a 8d0b cfbc 4f4b 86bc
00000300: 72d8 cd3a 8b95 f33c 3097 adbb 00a8 a2bc
00000310: 55ac 1b3c 8a0a 67bb a348 e2bc 7560 9cbc
00000320: a774 3cbc 2358 fbbc 136c 883c 8912 573c
00000330: 73aa f63c 0a70 a13c 41d4 1bbc 31b8 783c
00000340: 0f72 02bd ec12 babc ba28 d93b 2c5c debc
00000350: e606 0d3a 560c e13c 3a61 8d3c 9b7f bb3c
00000360: 22cb de3c 8e14 20bb ead4 c33c 27a2 19bc
00000370: 3294 11bd a479 cb3c 2739 6d3a 282a 0ebd
00000380: f655 693c 6e1c b53a cbb7 84bc e20e e23c
00000390: 0ea2 a93c fc27 31bb 94fc afbc 7453 50bc
000003a0: 6cf9 19bc 8718 e43b 00c8 83ba 9209 0b3d
000003b0: 7d2e 0a3d a530 c43a 3c84 a2bc 8918 74bc
000003c0: 20db 2abc f531 9bbc 62c0 e23a 810b 1e3c
000003d0: 954d e33c 956c db3c 1210 593c a00f 3fbb
000003e0: 013a c7bb 6775 0ebd 787e babc 6b11 bcbb
000003f0: dd4b b93c c678 dcba b682 313c 6fbb a43c

weight f4 [256]
0.9022618 1.074607 1.0699446 0.9016732 1.0441743 0.8776661 0.9667044 0.98639566
0.98412234 1.0721735 0.8416088 0.94437146 1.0983554 0.84936166 1.008207 0.9178221
0.9132682 1.1259599 0.9318412 1.0446371 0.97212744 0.7858831 0.8175894 1.0702485
0.9719592 1.0125415 1.0497093 0.9731568 1.2274117 1.0155127 1.1626194 0.90125155
0.86491555 0.94492906 0.976409 0.93384755 1.0100989 1.0445122 1.0961193 1.0321136
1.0961316 1.2362485 1.157811 1.0242997 0.9987432 1.1383696 1.0448192 0.9957194
1.0363438 0.9091195 0.85976714 0.9518541 0.9090478 1.0837255 0.83926964 1.0010828
0.9563073 1.0579818 0.9219902 1.0383416 0.9443504 0.8906563 0.805902 0.7965673
0.92422533 1.0418639 0.9776638 0.9572476 0.936884 1.0658897 1.0008531 0.9562414
1.2347409 0.9774714 0.9361147 0.99288714 0.8864232 0.9263266 1.1183243 0.6726837
1.0783781 1.0050924 1.0063412 0.92419404 1.0820695 0.8376133 0.9874152 0.95859486
1.0177404 0.9694481 1.0078773 0.8500282 0.93129593 1.0151083 0.8939916 1.0055293
1.0887312 0.7602267 0.9453648 0.874627 0.87735623 1.09418 1.0010198 0.79768705
0.85181546 1.0552183 1.0382963 0.85223484 0.8976541 1.0066687 0.9614687 1.0099297
0.8914734 1.1089207 0.99480957 1.0337026 1.1069002 0.9347029 0.9687265 0.85112983
0.93489146 1.0207899 1.0145148 0.9294433 1.1282138 0.8945693 1.0203876 0.97724295
0.98835516 0.9012847 0.9050037 1.1452833 0.9451746 0.9144587 0.8159704 0.8499213
1.1001222 0.9385072 1.0511355 0.97401947 1.1835142 1.0788274 0.8911325 1.1073312
1.0145103 1.0072799 0.9871609 0.8179048 0.9748972 0.95436704 1.0826771 0.93563455
1.0095974 1.016921 1.1040628 1.0553545 0.8345615 0.96561134 1.0044338 1.1484082
0.69615215 1.2519267 1.0763829 0.88001055 0.9771002 1.0496619 0.9441661 1.0135124
0.7745318 1.0147399 1.1594466 0.883549 1.0312166 1.055443 1.0047778 0.772773
1.1237245 0.747597 0.833919 0.78157765 1.1478606 0.84079546 0.8121889 1.0695462
1.0074005 1.084966 1.0721185 1.0453768 0.7390094 0.84829044 1.2608706 1.039239
0.9932394 0.9756521 1.0108523 0.8794865 0.8585685 1.007782 0.9674133 0.9616084
0.9886053 0.8849547 0.8160498 1.1205833 1.1654398 0.8228353 0.9903829 0.8171497
0.93338525 0.99720687 1.265334 0.92652035 1.0022727 0.77966636 0.85071856 1.061615
0.8602227 0.91531235 0.98291415 1.0861483 0.9176486 1.0562402 1.2125752 0.9402312
1.0282876 1.0350101 0.9166093 0.95371884 0.88230354 0.69736433 0.7516246 0.75728315
0.9023726 0.9049052 0.96290857 0.8422325 1.0558511 1.0321618 1.139724 0.821421
0.810493 0.9436898 0.85681874 0.9155172 0.94467163 1.074193 0.84798986 0.9953373
0.79369783 0.93413776 0.8830623 0.9949176 0.88822293 1.1531909 1.2285802 1.0622432
00000000: a1fa 663f b98c 893f f2f3 883f 0ed4 663f
00000010: 81a7 853f baae 603f f179 773f 6d84 7c3f
00000020: 71ef 7b3f fb3c 893f ad73 573f 54c2 713f
00000030: e996 8c3f c46f 593f ed0c 813f 64f6 6a3f
00000040: f2cb 693f 741f 903f 258d 6e3f abb6 853f
00000050: 58dd 783f a32f 493f 8a4d 513f e7fd 883f
00000060: 51d2 783f f69a 813f e05c 863f ce20 793f
00000070: d41b 9d3f 52fc 813f b6d0 943f 6cb8 663f
00000080: 1b6b 5d3f dfe6 713f f1f5 793f a210 6f3f
00000090: ec4a 813f 93b2 853f a34d 8c3f 4c1c 843f
000000a0: 0a4e 8c3f 643d 9e3f 2733 943f 411c 833f
000000b0: a2ad 7f3f 18b6 913f a3bc 853f 77e7 7e3f
000000c0: eaa6 843f 0ebc 683f b319 5c3f b6ac 733f
000000d0: 5bb7 683f 84b7 8a3f 60da 563f 7b23 803f
000000e0: 8ed0 743f f36b 873f 8d07 6c3f 61e8 843f
000000f0: f3c0 713f 0d02 643f 984f 4e3f d6eb 4b3f
00000100: 089a 6c3f cc5b 853f 2d48 7a3f 2e0e 753f
00000110: a1d7 6f3f 136f 883f f41b 803f 3dcc 743f
00000120: fd0b 9e3f 913b 7a3f 37a5 6f3f da2d 7e3f
00000130: a1ec 623f bd23 6d3f 4025 8f3f 0035 2c3f
00000140: 4b08 8a3f dea6 803f cacf 803f fb97 6c3f
00000150: 4181 8a3f d36d 563f 3ec7 7c3f 7966 753f
00000160: 5145 823f c02d 783f 2002 813f 739b 593f
00000170: 6969 6e3f 12ef 813f a2dc 643f 2fb5 803f
00000180: 8b5b 8b3f 389e 423f 6d03 723f 8ee7 5f3f
00000190: 6b9a 603f 170e 8c3f 6b21 803f 3835 4c3f
000001a0: 9410 5a3f 6511 873f e5e6 843f 102c 5a3f
000001b0: a9cc 653f 85da 803f d022 763f 6045 813f
000001c0: 9a37 643f 1df1 8d3f d7ab 7e3f 5e50 843f
000001d0: e8ae 8d3f b048 6f3f 76fe 773f a5e3 593f
000001e0: 0c55 6f3f 3ea9 823f 9fdb 813f ffef 6d3f
000001f0: 4f69 903f 7e02 653f 109c 823f 982c 7a3f
00000200: d804 7d3f 98ba 663f 53ae 673f a598 923f
00000210: f6f6 713f f719 6a3f 70e3 503f 7194 593f
00000220: ced0 8c3f 0242 703f 9c8b 863f 5759 793f
00000230: 657d 973f 0417 8a3f 4221 643f 07bd 8d3f
00000240: 79db 813f 8cee 803f 94b6 7c3f 3562 513f
00000250: dd92 793f 6651 743f 2a95 8a3f bf85 6f3f
00000260: 7d3a 813f 782a 823f ee51 8d3f db15 873f
00000270: d3a5 553f 4e32 773f 4991 803f 0aff 923f
00000280: 0737 323f 223f a03f eac6 893f 5f48 613f
00000290: 3d23 7a3f 525b 863f dfb4 713f c6ba 813f
000002a0: b747 463f ffe2 813f bf68 943f 4430 623f
000002b0: e8fe 833f c218 873f 8f9c 803f 74d4 453f
000002c0: 34d6 8f3f 8462 3f3f b77b 553f 7915 483f
000002d0: 19ed 923f 5f3e 573f 9deb 4f3f e4e6 883f
000002e0: 80f2 803f 2ae0 8a3f 2e3b 893f e8ce 853f
000002f0: b82f 3d3f 9029 593f 3564 a13f c905 853f
00000300: f044 7e3f 56c4 793f 9c63 813f 0726 613f
00000310: 25cb 5b3f 00ff 803f 66a8 773f f82b 763f
00000320: 3d15 7d3f 648c 623f a4e8 503f 466f 8f3f
00000330: 222d 953f 56a5 523f bc89 7d3f b930 513f
00000340: 56f2 6e3f f348 7f3f 77f6 a13f 7030 6d3f
00000350: 794a 803f 3798 473f b1c8 593f 00e3 873f
00000360: 8e37 5c3f e951 6a3f 43a0 7b3f e806 8b3f
00000370: 05eb 6a3f e132 873f aa35 9b3f feb2 703f
00000380: ee9e 833f 367b 843f e8a6 6a3f eb26 743f
00000390: a5de 613f 7886 323f 786a 403f 4fdd 413f
000003a0: e401 673f dea7 673f 2d81 763f 8d9c 573f
000003b0: 2126 873f e11d 843f 7ae2 913f a648 523f
000003c0: 787c 4f3f a895 713f 7958 5b3f 565f 6a3f
000003d0: 00d6 713f 287f 893f dd15 593f 6dce 7e3f
000003e0: c82f 4b3f a723 6f3f 5f10 623f ebb2 7e3f
000003f0: 9462 633f c29b 933f 1e42 9d3f 96f7 873f

bias f4 [256]
-0.4240094 -0.18820967 -0.11656974 -0.16228616 -0.2888927 -0.25976384 -0.30884105 -0.18617244
-0.24946822 -0.3713483 -0.2679676 -0.253867 -0.22658636 -0.29153356 -0.21844871 -0.1543563
-0.27476615 -0.08725156 -0.17661415 -0.38186648 -0.17617804 -0.2628483 -0.20314498 -0.22901991
-0.067936614 -0.2525115 -0.3477418 -0.24174191 -0.2665234 -0.1386601 -0.0880997 -0.33128333
-0.28923738 -0.19108199 -0.30205113 -0.101367645 -0.42513403 -0.23527592 -0.3171432 -0.24955396
-0.27945694 -0.23271613 0.013441926 -0.35638973 -0.30688772 -0.15798199 -0.10074287 -0.21761727
-0.1168215 -0.29757845 -0.34768447 -0.1889409 -0.3492376 -0.32012546 -0.32166108 -0.2610709
-0.23562115 -0.15415649 -0.11452748 -0.09176052 -0.25489485 -0.28652653 -0.31553632 -0.2730716
-0.3453234 -0.18580046 -0.3159592 -0.26938102 -0.3929309 -0.16166389 -0.29235366 -0.19491717
-0.181456 -0.17248394 -0.15348439 -0.25355136 -0.2909597 -0.1568595 -0.21665832 -0.39025483
-0.2399583 -0.2560002 -0.19576022 -0.20655009 -0.1685187 -0.28162527 -0.17686097 -0.19693795
-0.33813223 -0.14852902 -0.26541093 -0.19156489 -0.2688009 -0.1854389 -0.24358147 -0.19073649
-0.24595435 -0.31907737 -0.24129528 -0.36391163 -0.41792238 -0.17520669 -0.33457434 -0.3736859
-0.17984703 -0.2841616 -0.3158384 -0.1802104 -0.39180964 -0.238822 -0.31755197 -0.1733018
-0.16977167 -0.20632724 -0.25578615 -0.18265381 -0.28549656 -0.1872786 -0.31160676 -0.333159
-0.2729302 -0.14764531 -0.21781974 -0.2930998 -0.1867866 -0.077468656 -0.23243959 -0.3523304
-0.1140601 -0.2851193 -0.26163998 -0.060735513 -0.17457907 -0.3030026 -0.34577328 -0.24883962
-0.24236849 -0.10398865 -0.15677804 -0.29161334 -0.14970292 -0.1867139 -0.28482446 -0.25886384
-0.34656924 -0.23677404 -0.28863358 -0.37592545 -0.17411183 -0.3157738 -0.23395081 -0.32276547
-0.22118261 -0.20312323 -0.2604756 -0.2042161 -0.23201226 -0.094629705 -0.06246229 -0.22547302
-0.33392525 -0.3393146 -0.24454154 -0.34999603 -0.17906666 -0.26673612 -0.2841031 -0.36372015
-0.195929 -0.24070393 -0.18793924 -0.06954136 -0.15923819 -0.3292047 -0.31030044 -0.42328608
-0.10276035 -0.385681 -0.3689665 -0.28790677 -0.15638866 -0.3252963 -0.37631086 -0.15439542
-0.2901702 -0.23402615 -0.12635864 -0.18465535 -0.36333272 -0.13743432 -0.20480587 -0.14779772
-0.17211804 -0.29101396 -0.15000539 -0.15045106 -0.004752446 -0.17407691 -0.2574528 -0.3029981
-0.33094504 -0.28236791 -0.22768204 0.022427382 -0.015164266 -0.17672956 -0.1865721 -0.2704001
-0.1682104 -0.29347995 -0.24939205 -0.22456458 -0.10981458 -0.39455405 -0.33627057 -0.07338392
-0.19465627 -0.22747074 -0.2733443 -0.20169087 -0.20897636 -0.32108384 -0.25258163 -0.33693638
-0.1648308 -0.21479045 -0.19298711 -0.20609832 -0.20847638 -0.23994267 -0.28121144 -0.23554462
-0.25689036 -0.26011446 -0.24171188 -0.31752795 -0.20448941 -0.32172927 -0.20744699 -0.22383752
-0.41956618 -0.24662311 -0.17487445 -0.26589224 -0.32039648 -0.27104387 -0.17698461 -0.16114418
-0.30726147 -0.17033547 -0.31055573 -0.15989177 -0.2035175 -0.223277 -0.13307162 -0.30486298
00000000: c317 d9be 09ba 40be 1ebc eebd 582e 26be
00000010: bee9 93be c4ff 84be 6a20 9ebe fda3 3ebe
00000020: 9974 7fbe 5d21 bebe 0d33 89be dbfa 81be
00000030: 4106 68be e343 95be 05b1 5fbe 940f 1ebe
00000040: 26ae 8cbe f2b0 b2bd 57da 34be 0184 c3be
00000050: 0468 34be 0d94 86be 3d05 50be 3284 6abe
00000060: 5a22 8bbd 3049 81be 370b b2be 318b 77be
00000070: c175 88be eafc 0dbe 9e6d b4bd f89d a9be
00000080: ec16 94be ffaa 43be 72a6 9abe d799 cfbd
00000090: 2bab d9be 2cec 70be 9860 a2be 138b 7fbe
000000a0: fb14 8fbe 234d 6ebe 863b 5c3c b778 b6be
000000b0: 6320 9dbe 08c6 21be 4752 cebd 10d7 5ebe
000000c0: 1c40 efbd 345c 98be b303 b2be b979 41be
000000d0: 45cf b2be 7ce7 a3be c3b0 a4be 16ab 85be
000000e0: ac46 71be 33db 1dbe 628d eabd f1ec bbbd
000000f0: 9481 82be 9bb3 92be fa8d a1be 0ad0 8bbe
00000100: 3bce b0be 7a42 3ebe 67c5 a1be 4fec 89be
00000110: 3d2e c9be 388b 25be 61af 95be 5e98 47be
00000120: 9acf 39be a19f 30be 032b 1dbe 7cd1 81be
00000130: abf8 94be c79f 20be aedb 5dbe 7bcf c7be
00000140: a1b7 75be 7512 83be 5e75 48be de81 53be
00000150: 2b90 2cbe 3031 90be 0b1b 35be 1aaa 49be
00000160: ab1f adbe fe17 18be f1e3 87be 9629 44be
00000170: 46a0 89be b2e3 3dbe 6c6d 79be 6d50 43be
00000180: 75db 7bbe 1c5e a3be 1c16 77be a052 babe
00000190: ecf9 d5be 6269 33be 544d abbe c253 bfbe
000001a0: d229 38be a17d 91be 92b5 a1be 1389 38be
000001b0: 469b c8be c18d 74be 2c96 a2be 0776 31be
000001c0: a0d8 2dbe 7347 53be 67f6 82be 9a09 3bbe
000001d0: 9b2c 92be f6c5 3fbe ec8a 9fbe d193 aabe
000001e0: 82bd 8bbe 5530 17be 230c 5fbe 2d11 96be
000001f0: fd44 3fbe e3a7 9ebd a504 6ebe a664 b4be
00000200: 5798 e9bd 28fb 91be adf5 85be cdc5 78bd
00000210: dbc4 32be 2823 9bbe 3209 b1be d0cf 7ebe
00000220: 722f 78be 00f8 d4bd 6c8a 20be 584e 95be
00000230: b94b 19be ee31 3fbe 83d4 91be cd89 84be
00000240: 8671 b1be e574 72be c8c7 93be 4d79 c0be
00000250: 5f4a 32be 1aad a1be cd90 6fbe 8441 a5be
00000260: b27d 62be 89ff 4fbe 0f5d 85be 061e 51be
00000270: 9f94 6dbe 38cd c1bd 75d8 7fbd 66e2 66be
00000280: 40f8 aabe a5ba adbe 1969 7abe ae32 b3be
00000290: 405d 37be a391 88be f675 91be 8739 babe
000002a0: 9da1 48be 177b 76be 2573 40be b36b 8ebd
000002b0: 560f 23be 858d a8be b3df 9ebe f4b8 d8be
000002c0: 0574 d2bd fb77 c5be 2de9 bcbe 8468 93be
000002d0: 5924 20be 3d8d a6be d1ab c0be d519 1ebe
000002e0: 3091 94be 8da4 6fbe 2964 01be 4b16 3dbe
000002f0: bf06 babe 95bb 0cbe a1b8 51be 4958 17be
00000300: b63f 30be c8ff 94be 039b 19be d80f 1abe
00000310: 68ba 9bbb 3841 32be dad0 83be 9122 9bbe
00000320: a171 a9be 8792 90be 7b25 69be a1b9 b73c
00000330: 8b73 78bc 98f8 34be c20c 3fbe e271 8abe
00000340: 593f 2cbe 0143 96be a160 7fbe 42f4 65be
00000350: 77e6 e0bd fd02 cabe a82b acbe 4f4a 96bd
00000360: f953 47be 17ee 68be c9f3 8bbe 0d88 4ebe
00000370: e6fd 55be 1a65 a4be 6152 81be ed82 acbe
00000380: 68c9 28be 07f2 5bbe 6a9e 45be 700b 53be
00000390: d57a 55be 88b3 75be f2fa 8fbe 9c32 71be
000003a0: 2287 83be b92d 85be 5283 77be 0693 a2be
000003b0: ac65 51be b3b9 a4be fc6c 54be aa35 65be
000003c0: 61d1 d6be c58a 7cbe 4a12 33be 0723 88be
000003d0: 020b a4be 43c6 8abe 743b 35be fb02 25be
000003e0: 6051 9dbe 6c6c 2ebe 2901 9fbe abba 23be
000003f0: e466 50be baa2 64be ed43 08be 0017 9cbe

running_mean f4 [256]
-540.6119 168.52289 -164.87666 -431.2321 -14.679603 -865.0424 -268.60022 61.19478
-572.2288 -725.7186 -341.03525 148.22078 7.6643286 -145.39056 204.55109 -167.44598
-353.24005 -424.64676 141.80473 -86.41428 -338.18927 -373.31482 984.4023 -473.55026
-313.27682 -1023.9332 -412.0043 -320.6014 -350.63248 248.17949 -170.23466 -91.02225
275.25952 134.06084 106.122154 -134.71208 -636.67285 -27.678738 -162.83487 -578.65875
314.0582 -399.70078 -33.728825 -190.09172 -682.202 -259.68726 341.65558 -132.19595
-205.36722 -918.1826 33.172054 110.45621 -797.26685 -69.71821 -469.07614 -717.6156
233.96722 -157.05397 124.83695 -210.32565 485.18256 -582.627 -436.05865 -729.36163
-545.5993 463.41263 -206.30594 -847.3077 -379.49625 311.28775 -523.9133 -75.525444
-691.9151 -360.41147 47.227554 -457.0218 -432.67667 -120.132835 -261.555 121.00324
192.16003 -160.32843 -336.6033 401.02005 -211.84535 172.94627 240.60359 69.23416
31.111273 -511.00592 -159.72505 -583.96094 -712.66943 257.6755 250.61105 -194.21925
-220.00972 -327.8415 37.8374 -330.8663 -516.4798 -138.04138 -98.033615 -762.5181
-198.43246 -230.91911 111.206505 -88.67172 308.1307 -694.69965 -384.41037 -103.38401
-604.7685 -280.305 -512.12787 -645.04913 -537.91394 -376.36557 -802.66583 -593.3702
-370.0536 -147.598 -354.22394 -594.7636 -395.19638 -537.716 -294.95547 17.632298
23.918491 -512.5871 -445.3995 -354.59656 -283.50995 492.38467 -870.4266 55.647175
-171.75275 186.06717 -124.61449 21.413305 -411.53064 2.2455437 -425.3585 -396.6254
458.81952 -45.33029 -356.28033 -205.05424 413.26544 -808.2836 -333.13773 -638.30804
-483.12262 -864.6131 -356.5531 8.252498 -528.72906 165.08224 -166.34354 -2.9485857
-49.692844 -155.91078 -154.05742 -102.47532 -463.23157 135.22388 264.31332 -225.53311
-499.1722 -445.1032 -351.75403 887.75793 -200.7961 -555.9404 -695.7921 -176.19084
-148.77946 -49.39923 -22.340364 -253.65202 385.23074 -711.625 -235.7284 337.30844
-218.79608 -614.3077 -108.8634 -829.8121 34.51148 -35.925495 -425.12344 -183.6484
-267.44687 -770.3689 -525.29596 23.901236 -13.389013 -72.07956 27.004177 -661.8964
-450.01224 -509.6496 476.28357 303.82602 75.3069 -352.5488 -195.85799 9.71245
-54.786728 296.58615 -150.52454 -268.69592 -9.997186 -414.71686 -154.41803 8.557567
175.14201 648.9429 -2.853151 -382.16083 -196.29489 -294.77426 120.529335 -1221.896
203.19945 -50.72021 -76.261856 -488.56985 -388.45416 363.67593 -813.1852 -162.68983
-1021.4832 225.67142 -455.03806 -383.6065 140.68253 27.729242 52.898018 -133.0452
-454.92746 -285.36737 -654.5593 -316.62924 -561.96796 -254.66933 -237.0335 203.01558
-216.32765 -313.13715 -136.0587 -120.93775 -48.914867 -588.8532 190.06602 -371.13538
00000000: 2927 07c4 dc85 2843 6de0 24c3 b59d d7c3
00000010: a7df 6ac1 b742 58c4 d44c 86c3 74c7 7442
00000020: a50e 0fc4 fe6d 35c4 8384 aac3 8538 1443
00000030: 2e42 f540 fc63 11c3 148d 4c43 2c72 27c3
00000040: ba9e b0c3 c952 d4c3 03ce 0d43 1dd4 acc2
00000050: 3a18 a9c3 4ca8 bac3 bf19 7644 6fc6 ecc3
00000060: 6fa3 9cc3 bafb 7fc4 8d00 cec3 fb4c a0c3
00000070: f550 afc3 f32d 7843 133c 2ac3 640b b6c2
00000080: 38a1 8943 930f 0643 8b3e d442 4bb6 06c3
00000090: 102b 1fc4 0e6e ddc1 bad5 22c3 29aa 10c4
000000a0: 7307 9d43 b3d9 c7c3 51ea 06c2 7b17 3ec3
000000b0: ee8c 2ac4 f8d7 81c3 ead3 aa43 2a32 04c3
000000c0: 025e 4dc3 b08b 65c4 2fb0 0442 94e9 dc42
000000d0: 1451 47c4 b96f 8bc2 bf89 eac3 6667 33c4
000000e0: 9cf7 6943 d10d 1dc3 85ac f942 5e53 52c3
000000f0: 5e97 f243 21a8 11c4 8207 dac3 2557 36c4
00000100: 5b66 08c4 d1b4 e743 524e 4ec3 b1d3 53c4
00000110: 85bf bdc3 d5a4 9b43 74fa 02c4 070d 97c2
00000120: 91fa 2cc4 ab34 b4c3 04e9 3c42 ca82 e4c3
00000130: 9d56 d8c3 0344 f0c2 0ac7 82c3 a901 f242
00000140: f828 4043 1454 20c3 394d a8c3 9182 c843
00000150: 69d8 53c3 3ff2 2c43 859a 7043 e477 8a42
00000160: e3e3 f841 c280 ffc3 9db9 1fc3 80fd 11c4
00000170: d82a 32c4 77d6 8043 6e9c 7a43 2138 42c3
00000180: 7d02 5cc3 b6eb a3c3 7f59 1742 e36e a5c3
00000190: b51e 01c4 980a 0ac3 3611 c4c2 29a1 3ec4
000001a0: b66e 46c3 4beb 66c3 bb69 de42 ec57 b1c2
000001b0: bb10 9a43 c7ac 2dc4 8734 c0c3 9dc4 cec2
000001c0: 2f31 17c4 0a27 8cc3 2f08 00c4 2543 21c4
000001d0: 7e7a 06c4 cb2e bcc3 9daa 48c4 b157 14c4
000001e0: dc06 b9c3 1799 13c3 aa1c b1c3 dfb0 14c4
000001f0: 2399 c5c3 d36d 06c4 4d7a 93c3 f20e 8d41
00000200: 1259 bf41 9325 00c4 23b3 dec3 5c4c b1c3
00000210: 46c1 8dc3 3d31 f643 4d9b 59c4 b596 5e42
00000220: b4c0 2bc3 3211 3a43 9e3a f9c2 734e ab41
00000230: ecc3 cdc3 fdb6 0f40 e3ad d4c3 0d50 c6c3
00000240: e668 e543 3852 35c2 e223 b2c3 e30d 4dc3
00000250: faa1 ce43 2712 4ac4 a191 a6c3 b793 1fc4
00000260: b28f f1c3 3d27 58c4 cc46 b2c3 3b0a 0441
00000270: a92e 04c4 0e15 2543 f257 26c3 a1b5 3cc0
00000280: 79c5 46c2 29e9 1bc3 b30e 1ac3 5df3 ccc2
00000290: a49d e7c3 5039 0743 1b28 8443 7a88 61c3
000002a0: 0b96 f9c3 368d dec3 84e0 afc3 82f0 5d44
000002b0: cdcb 48c3 30fc 0ac4 b2f2 2dc4 db30 30c3
000002c0: 8bc7 14c3 d098 45c2 11b9 b2c1 eba6 7dc3
000002d0: 899d c043 00e8 31c4 78ba 6bc3 7ba7 a843
000002e0: cccb 5ac3 b193 19c4 10ba d9c2 f973 4fc4
000002f0: c10b 0a42 b5b3 0fc2 cd8f d4c3 fea5 37c3
00000300: 33b9 85c3 9c97 40c4 f152 03c4 bb35 bf41
00000310: 6639 56c1 bc28 90c2 8e08 d841 5f79 25c4
00000320: 9101 e1c3 26d3 fec3 4c24 ee43 bbe9 9743
00000330: 229d 9642 3f46 b0c3 a5db 43c3 3266 1b41
00000340: 9c25 5bc2 074b 9443 4886 16c3 1459 86c3
00000350: 79f4 1fc1 c25b cfc3 046b 1ac3 cbeb 0841
00000360: 5b24 2f43 583c 2244 079a 36c0 9614 bfc3
00000370: 7e4b 44c3 1b63 93c3 050f f142 acbc 98c4
00000380: 0f33 4b43 7fe1 4ac2 1286 98c2 f148 f4c3
00000390: 223a c2c3 85d6 b543 da4b 4bc4 99b0 22c3
000003a0: ed5e 7fc4 e2ab 6143 df84 e3c3 a2cd bfc3
000003b0: baae 0c43 7dd5 dd41 9297 5342 920b 05c3
000003c0: b776 e3c3 06af 8ec3 cca3 23c4 8b50 9ec3
000003d0: f37d 0cc4 59ab 7ec3 9308 6dc3 fd03 4b43
000003e0: e153 58c3 8e91 9cc3 070f 08c3 21e0 f1c2
000003f0: d3a8 43c2 9b36 13c4 e710 3e43 5491 b9c3

running_var f4 [256]
365586.12 277393.6 317037.72 371299.66 181652.47 320040.22 288572.97 334628.9
203807.89 286397.6 341721.84 204458.89 179297.75 236652.3 230095.52 238563.94
196737.08 273303.34 299093.72 178972.02 185592.92 196960.92 267968.53 199084.95
369241.12 397810.62 229728.9 248748.28 214317.03 152547.61 189134.56 196362.06
232497.92 178091.88 276736.75 205006.75 318431.56 363360.9 190522.4 220834.44
291755.5 171520.69 261954.89 273308.06 429660.78 230971.08 269165.78 233520.48
246589.55 298609.5 226402.61 350918.94 246194.7 244720.73 327722.7 219928.69
203154.06 286169.84 173214.4 321291.3 301349.03 228477.6 405188.56 238642.22
240826.95 198428.62 254622.0 333847.1 282401.84 294335.56 168580.03 256448.83
348186.25 345085.9 207990.83 270484.53 218128.67 204344.73 179906.88 338185.97
482109.6 299414.4 198945.44 181888.6 305820.44 212742.81 201704.61 296267.1
186985.89 305457.72 235082.23 197117.38 307578.62 267155.16 267810.84 277637.72
296627.75 268873.47 251734.66 274925.66 280092.84 147129.38 190629.5 284117.53
164432.66 253472.81 202804.9 382621.22 201979.47 183857.69 162308.62 235306.86
285085.28 276294.38 343936.97 267759.72 217003.06 311700.25 448943.4 192130.31
389870.12 220567.98 316216.22 289128.84 308712.94 344480.53 266933.97 228925.47
247180.45 158830.58 326379.84 190367.08 279063.44 253424.89 233101.45 350238.62
222187.16 317968.6 244196.1 258764.86 167453.28 340737.0 238798.66 230052.78
179629.22 203335.23 213770.03 222347.69 250975.86 221795.77 223426.66 361235.53
255851.12 337829.44 295692.78 138315.75 181148.83 159640.12 250682.23 196612.11
292517.53 191560.16 321465.0 168954.2 174333.31 230192.78 248017.25 224077.02
499608.12 263119.12 229998.17 303929.22 244557.03 188799.03 198600.94 286104.44
266569.38 189680.56 252484.69 300364.12 236260.3 236613.78 277592.84 159360.34
239474.4 289199.44 243451.3 206879.47 234104.34 281209.6 247845.8 285824.97
279890.34 242347.89 189233.97 206067.19 278418.0 163697.14 291481.6 257088.4
218569.22 195360.03 229072.94 255927.16 186024.28 197284.48 296533.75 189329.97
213254.72 232532.02 215567.23 220511.14 271255.06 293283.1 205496.48 283338.0
360382.38 251955.31 242244.55 396698.16 356388.22 198862.0 168474.9 398248.38
285104.8 290663.0 236446.98 231722.22 289752.06 248492.97 254439.33 235602.25
340622.0 208246.95 247677.33 226579.47 164850.44 195154.92 348776.2 425799.0
331448.6 215579.58 256445.05 280272.7 225632.66 208747.05 274428.72 232001.55
246156.88 224008.12 381867.0 184538.84 194884.31 246161.89 280223.47 173043.42
00000000: 4482 b248 3372 8748 b7cd 9a48 754c b548
00000010: 1e65 3148 0745 9c48 9fe7 8c48 9d64 a348
00000020: f907 4748 b3d7 8b48 3bdb a648 b9aa 4748
00000030: 7018 2f48 131b 6748 e1b3 6048 fcf8 6848
00000040: 4520 4048 eb72 8548 b70a 9248 01c7 2e48
00000050: 3b3e 3548 3b58 4048 11d8 8248 3d6b 4248
00000060: 244b b448 543e c248 3a58 6048 12eb 7248
00000070: 424b 5148 e7f8 1448 a4b3 3848 84c2 3f48
00000080: 7b0c 6348 f8ea 2d48 1820 8748 b033 4848
00000090: f27b 9b48 1d6c b148 9a0e 3a48 9ca8 5748
000000a0: 7075 8e48 2c80 2748 b9d0 7f48 8273 8548
000000b0: 99cb d148 c58e 6148 b96d 8348 1f0c 6448
000000c0: 63cf 7048 30ce 9148 a718 5d48 de58 ab48
000000d0: ad6c 7048 2ffc 6e48 5605 a048 2cc6 5648
000000e0: 8464 4648 3bbb 8b48 9a27 2948 6ae1 9c48
000000f0: a124 9348 661f 5f48 92d8 c548 8e0c 6948
00000100: bd2e 6b48 28c7 4148 80a7 7848 e302 a348
00000110: 3be4 8948 f2b7 8f48 02a1 2448 3570 7a48
00000120: 4803 aa48 bd7f a848 b51d 4b48 9112 8448
00000130: 2b04 5548 2f8e 4748 b8b0 2f48 3f21 a548
00000140: b367 eb48 cd32 9248 5c48 4248 26a0 3148
00000150: 8e53 9548 b4c1 4f48 27fa 4448 63a9 9048
00000160: 799a 3648 3726 9548 8f92 6548 587f 4048
00000170: 542f 9648 6572 8248 5bc4 8248 b790 8748
00000180: 78d6 9048 2f49 8348 aad5 7548 b53d 8648
00000190: 9bc3 8848 58ae 0f48 6029 3a48 b1ba 8a48
000001a0: 2a94 2048 3488 7748 3a0d 4648 a7d3 ba48
000001b0: de3e 4548 6c8c 3348 2881 1e48 b7ca 6548
000001c0: a933 8b48 cce8 8648 1ff0 a748 f7bd 8248
000001d0: c4ea 5348 8832 9848 ed35 db48 94a0 3b48
000001e0: c45d be48 ff65 5748 0767 9a48 1b2d 8d48
000001f0: 1ebd 9648 1134 a848 bf56 8248 5e8f 5f48
00000200: 1d63 7148 a51b 1b48 7b5d 9f48 c5e7 3948
00000210: ee42 8848 397c 7748 5da3 6348 d403 ab48
00000220: cafa 5848 1342 9b48 0679 6e48 37b3 7c48
00000230: 5287 2348 2060 a648 aa33 6948 32a9 6048
00000240: 4e6b 2f48 cf91 4648 82c2 5048 ec22 5948
00000250: f717 7548 f198 5848 aa30 5a48 7162 b048
00000260: c8da 7948 aef4 a448 9961 9048 f012 0748
00000270: 35e7 3048 08e6 1b48 8fce 7448 0701 4048
00000280: b1d4 8e48 0a12 3b48 20f7 9c48 8dfe 2448
00000290: 543f 2a48 32cc 6048 5034 7248 41d3 5a48
000002a0: 04f3 f348 e479 8048 8b9b 6048 2767 9448
000002b0: 42d3 6e48 c25f 3848 3cf2 4148 0eb3 8b48
000002c0: 2c29 8248 243c 3948 2c91 7648 84a9 9248
000002d0: 13b9 6648 7211 6748 1b8b 8748 16a0 1b48
000002e0: 9adc 6948 ee35 8d48 d3be 6d48 de07 4a48
000002f0: 169e 6448 334f 8948 7309 7248 1f90 8b48
00000300: 4baa 8848 f9aa 6c48 7ecc 3848 cc3c 4948
00000310: 40f2 8748 49dc 1f48 3353 8e48 1a10 7b48
00000320: 4e72 5548 02c8 3e48 3cb4 5f48 caed 7948
00000330: 12aa 3548 1fa9 4048 b8ca 9048 7ee4 3848
00000340: ae41 5048 0115 6348 cf83 5248 c957 5748
00000350: e272 8448 6334 8f48 1fae 4848 4059 8a48
00000360: ccf7 af48 d40c 7648 2391 6c48 45b3 c148
00000370: 8704 ae48 8033 4248 ba86 2448 0c75 c248
00000380: 1a36 8b48 e0ec 8d48 bfe7 6648 8e4a 6248
00000390: 027b 8d48 3eab 7248 d579 7848 9014 6648
000003a0: c051 a648 bd5d 4b48 55df 7148 de44 5d48
000003b0: 9cfc 2048 bb94 3e48 064d aa48 e0e8 cf48
000003c0: 13d7 a148 e586 5248 436f 7a48 16da 8848
000003d0: 2a58 5c48 c3da 4b48 97ff 8548 6390 6248
000003e0: 3863 7048 08c2 5a48 6075 ba48 b636 3448
000003f0: 1451 3e48 7964 7048 efd3 8848 dbfc 2848

weight f4 [128, 256]
-0.026919642 -0.065220974 0.034932498 0.06169372 -0.06578883 0.15453696 0.03203036 0.043435406
-0.04854461 -0.008764872 -0.028886588 0.01260395 0.13886023 -0.09836138 0.10513521 -0.0849695
-0.1736095 -0.0446266 0.14085461 -0.34899077 0.06716455 0.22558713 0.060335927 0.1504908
0.15014663 -0.19554877 0.349517 -0.19543223 -0.13872781 -0.14434524 -0.032167725 0.01292633
-0.19042811 0.13111281 -0.093907066 -0.10666255 0.2653248 0.036287192 0.12337409 -0.24098648
-0.009853291 0.09125096 -0.11074765 0.0698261 0.105568096 -0.08053365 0.06287484 -0.09827434
0.018477997 0.15660237 -0.020190341 0.098193884 0.08055393 0.26174855 0.11217237 -0.0032823135
0.23887943 -0.03430588 -0.036869958 0.09402589 0.012736177 -0.236059 0.096972376 0.022833172
0.017711645 -0.42966837 0.026891772 0.08606301 0.07824166 0.09882782 -0.28164372 0.0136636915
-0.21017589 0.0454301 0.19473672 0.25600085 -0.061759803 -0.13463439 -0.16583115 0.14826636
0.21102512 0.22512466 -0.13827583 -0.19413564 0.21649267 0.082024105 0.088541016 0.010237438
0.09075212 0.19940694 0.093197286 0.008023211 -0.078289255 -0.0926984 -0.028563084 0.10567185
-0.00083532726 -0.08967441 -0.24480885 -0.12384397 -0.23429188 -0.05248349 -0.065259464 -0.04152819
-0.10754353 -0.1533135 -0.12179829 0.026605213 0.08306073 -0.22141053 -0.20576389 -0.16109253
-0.08580535 -0.05319527 -0.18082206 -0.07897617 -0.13390635 0.04054659 -0.2667141 0.092843086
0.027523795 -0.12232258 -0.05747945 0.13177203 0.06320829 0.030809032 -0.017939456 0.023729868
0.12911892 0.17934653 0.060313128 -0.38935888 -0.2680734 0.08872712 0.15315257 0.1055375
-0.11767156 0.07135134 0.061358143 0.0860635 0.15422356 0.13704702 0.16859755 -0.04656637
0.123667836 0.013286369 -0.08043071 0.072912 -0.013317437 0.2623187 -0.15421331 0.084895566
-0.19147348 -0.112238094 -0.23288606 -0.062107727 0.15527019 0.112549044 0.10461904 0.029423416
0.06391548 -0.25848004 0.14064838 0.03871909 0.106092684 -0.20447797 -0.16155922 -0.039841823
0.14734127 -0.18082713 0.06024432 0.13795184 -0.011864006 -0.28443187 0.0567825 0.019173615
0.06307613 0.06745556 0.03986468 0.047942363 -0.0984977 -0.08517137 -0.22440055 -0.026194502
0.29059386 0.061912235 -0.12782282 -0.15930986 -0.01598788 0.10526714 -0.26618952 -0.021682803
0.027808797 0.15579142 0.0063899527 0.0121974535 0.09288024 -0.14809978 0.189808 -0.10327136
0.04641305 -0.0056240363 0.082557514 -0.21185948 -0.116629735 -0.0076453923 -0.008939296 0.2763542
0.02827354 0.057872012 -0.11985164 0.10414059 -0.11473527 -0.09058734 -0.0723885 0.05532507
-0.068674825 0.14316547 0.05855004 0.03625979 0.21033406 0.2413713 -0.43187925 -0.14676993
-0.018448923 0.23308621 0.06580761 -0.2466065 -0.022067156 0.11726365 -0.061430503 -0.029021375
0.09060139 0.16259064 0.029155988 -0.0028995308 0.092895225 -0.117950246 -0.19986857 -0.109823085
-0.10356456 -0.026019504 -0.050759614 0.094553 -0.02335911 0.0077801044 0.012909628 -0.04480147
0.05256071 0.07872967 0.11251052 0.010917989 0.09904976 0.030163957 0.079464234 -0.112364754
00000000: 9586 dcbc 9392 85bd 6115 0f3d 8eb2 7c3d
00000010: 4bbc 86bd f03e 1e3e 4432 033d 53e9 313d
00000020: b7d6 46bd 8a9a 0fbc 91a3 ecbc cc80 4e3c
00000030: 6031 0e3e b171 c9bd 2151 d73d 7d04 aebd
00000040: b0c6 31be 62ca 36bd 313c 103e ebae b2be
00000050: 918d 893d 5000 673e ce22 773d 431a 1a3e
00000060: 0ac0 193e f03d 48be e4f3 b23e 631f 48be
00000070: aa0e 0ebe 3dcf 13be 4ec2 03bd f5c8 533c
00000080: 96ff 42be 7042 063e 5952 c0bd e571 dabd
00000090: a7d8 873e e1a1 143d 8eab fc3d 29c5 76be
000000a0: b36f 21bc c9e1 ba3d aacf e2bd fc00 8f3d
000000b0: 1634 d83d d4ee a4bd 86c4 803d 0f44 c9bd
000000c0: 2b5f 973c 5f5c 203e 3766 a5bc e019 c93d
000000d0: 75f9 a43d e803 863e a1ba e53d 151c 57bb
000000e0: cf9c 743e 5384 0cbd f404 17bd a590 c03d
000000f0: 66ab 503c 73b9 71be 7499 c63d a20c bb3c
00000100: 0318 913c 7efd dbbe 224c dc3c ce41 b03d
00000110: 2a3d a03d 3d66 ca3d 9b33 90be addd 5f3c
00000120: 5938 57be ea14 3a3d 1069 473e 8b12 833e
00000130: d9f7 7cbd 99dd 09be a4cf 29be 23d3 173e
00000140: f816 583e 1487 663e 2e98 0dbe 7ecb 46be
00000150: 41b0 5d3e 41fc a73d fe54 b53d edba 273c
00000160: 3fdc b93d 5531 4c3e 38de be3d c973 033c
00000170: 1e56 a0bd a9d8 bdbd 21fd e9bc 7c6a d83d
00000180: ddf9 5aba 38a7 b7bd 2caf 7abe e8a1 fdbd
00000190: 36ea 6fbe eef8 56bd c1a6 85bd 7719 2abd
000001a0: c83f dcbd 37fe 1cbe 6271 f9bd 2df3 d93c
000001b0: be1b aa3d 71b9 62be c5b3 52be 71f5 24be
000001c0: b7ba afbd 49e3 59bd 6b29 39be 42be a1bd
000001d0: bf1e 09be 2e14 263d c08e 88be 8424 be3d
000001e0: 9579 e13c 4384 fabd 926f 6bbd 3fef 063e
000001f0: 5973 813d 3963 fc3c c4f5 92bc 2465 c23c
00000200: c037 043e 9ea6 373e e60a 773d 0c5a c7be
00000210: eb40 89be 90b6 b53d 07d4 1c3e 0b24 d83d
00000220: c9fd f0bd a720 923d ad52 7b3d 0f42 b03d
00000230: c8ec 1d3e 0e56 0c3e d6a4 2c3e 61bc 3ebd
00000240: 9045 fd3d 12af 593c dbb8 a4bd e352 953d
00000250: 6131 5abc a34e 863e 18ea 1dbe badd ad3d
00000260: a011 44be 16dd e5bd af79 6ebe ac64 7ebd
00000270: 26ff 1e3e 1d80 e63d 8242 d63d 6009 f13c
00000280: 1fe6 823d 7f57 84be 2106 103e e997 1e3d
00000290: 1f47 d93d ac62 51be c86f 25be 2e31 23bd
000002a0: a1e0 163e bf2a 39be c0c2 763d 3f43 0d3e
000002b0: 3f61 42bc 0ea1 91be c494 683d fc11 9d3c
000002c0: 0f2e 813d 2426 8a3d 2649 233d 365f 443d
000002d0: 2ab9 c9bd 546e aebd 42c9 65be da95 d6bc
000002e0: b8c8 943e af97 7d3d fce3 02be 2022 23be
000002f0: 04f9 82bc 4c96 d73d fe49 88be 22a0 b1bc
00000300: 46cf e33c c987 1f3e cf62 d13b d4d7 473c
00000310: ff37 be3d 78a7 17be 075d 423e ef7f d3bd
00000320: 9c1b 3e3d d649 b8bb ea13 a93d b1f1 58be
00000330: 92db eebd 3386 fabb 2076 12bc 4c7e 8d3e
00000340: e99d e73c 340b 6d3d c774 f5bd a947 d53d
00000350: 53fa eabd db85 b9bd 6c40 94bd 8a9c 623d
00000360: 63a5 8cbd f899 123e 2bd2 6f3d 2585 143d
00000370: d061 573e 0a2a 773e 471f ddbe db4a 16be
00000380: 3222 97bc 27ae 6e3e 24c6 863d 6a86 7cbe
00000390: 2ec6 b4bc ed27 f03d 8d9e 7bbd 3cbe edbc
000003a0: 398d b93d 297e 263e 8ad8 ee3c 0e06 3ebb
000003b0: da3f be3d e68f f1bd 59aa 4cbe edea e0bd
000003c0: a819 d4bd db26 d5bc 50e9 4fbd 01a5 c13d
000003d0: 9b5b bfbc 3ff0 fe3b e882 533c bf81 37bd
000003e0: e649 573d 053d a13d ea6b e63d 5de1 323c
000003f0: 9ada ca3d 671a f73c 25be a23d 7e1f e6bd

bias f4 [128]
-0.025991136 -0.008874542 0.014511 -0.009737667 0.0014464589 0.04045743 -0.051061336 -0.0011619419
-0.015676035 -0.032772906 0.037755173 -0.038942996 0.054477282 0.036931664 0.017484305 0.025745219
-0.042611856 -0.056556903 0.013773108 -0.024204576 0.01922918 0.05135735 -0.015066167 0.043501332
0.03966405 0.050180048 -0.024817195 -0.00050652085 0.01308217 -0.017929468 0.026944099 -0.03787346
-0.026110696 -0.0034796523 0.015944924 0.007730818 0.061167266 0.009385711 -0.06000282 0.0423031
-0.056944124 0.04693801 -0.045989294 0.032061722 -0.023048699 -0.0036017399 -0.04916918 0.01420057
-0.0053119226 0.047836024 0.06062396 0.046723176 -0.018879063 -0.026790848 0.053787753 0.03242476
-0.0014413405 0.014469649 0.027612574 -0.04691705 0.044262625 -0.036622413 0.002711262 0.0359435
0.022592852 -0.034627378 0.029066788 0.05670309 -0.01679228 -0.0076298798 -0.021683391 0.0073568895
0.013272799 0.035732526 -0.059015576 -0.008754955 -0.047240335 0.054199204 0.050397184 0.016975857
0.029782504 0.009765752 -0.009835119 -0.038272858 0.037080903 -0.028564202 0.0582038 -0.0076465253
-0.04346495 -0.049335673 0.045358755 0.050544936 0.00072237954 0.01691325 0.061031014 -0.006143184
0.033511154 0.009171035 -0.010217782 0.039461974 -0.033200152 0.0023665521 -0.051237706 0.046065245
0.056932554 -0.038053524 0.020736873 0.024622895 -0.030461503 -0.009744186 -0.036819443 -0.0017460592
-0.010679468 -0.061186798 -0.054025527 -0.060168196 -0.04752335 0.0564038 0.011696258 -0.0513473
-0.046621244 -0.05103265 -0.0518023 -0.0009874207 -0.011042572 -0.0025991877 -0.007098291 -0.027654275
00000000: 5deb d4bc 8766 11bc 8cbf 6d3c bc8a 1fbc
00000010: 1b97 bd3a b1b6 253d b125 51bd 4d4c 98ba
00000020: 076b 80bc e23c 06bd 2ba5 1a3d b182 1fbd
00000030: 9223 5f3d a845 173d 3f3b 8f3c a3e7 d23c
00000040: c589 2ebd 36a8 67bd 9aa8 613c ad48 c6bc
00000050: 8386 9d3c 165c 523d 16d8 76bc 742e 323d
00000060: c576 223d 9889 4d3d 6e4d cbbc 0ac8 04ba
00000070: 9956 563c d2e0 92bc dfb9 dc3c 3421 1bbd
00000080: 19e6 d5bc e10a 64bb ee9e 823c cd52 fd3b
00000090: 878a 7a3d 86c6 193c 84c5 75bd 0446 2d3d
000000a0: 3e3e 69bd 1242 403d 455f 3cbd 2753 033d
000000b0: a0d0 bcbc 2b0b 6cbb 9f65 49bd 82a9 683c
000000c0: a30f aebb b5ef 433d d450 783d cd60 3f3d
000000d0: 44a8 9abc 7b78 dbbc 8c50 5c3d d3cf 043d
000000e0: 5deb bcba 1b12 6d3c c433 e23c 182c 40bd
000000f0: ba4c 353d 6201 16bd 6eaf 313b 7e39 133d
00000100: a514 b93c 70d5 0dbd 791d ee3c 8041 683d
00000110: f78f 89bc 1204 fabb 5ea1 b1bc 1012 f13b
00000120: 2776 593c 455c 123d 51ba 71bd f170 0fbc
00000130: 157f 41bd fcff 5d3d 476d 4e3d f410 8b3c
00000140: 70fa f33c 8800 203c 7b23 21bc 00c4 1cbd
00000150: 25e2 173d 79ff e9bc 1c67 6e3d b48f fabb
00000160: 4e08 32bd 3414 4abd 1aca 393d 3508 4f3d
00000170: 125e 3d3a a88d 8a3c a8fb 793d c34c c9bb
00000180: fe42 093d 1c42 163c 7c68 27bc e1a2 213d
00000190: e2fc 07bd 2818 1b3b a1de 51bd e9ae 3c3d
000001a0: 1c32 693d 03de 1bbd 60e0 a93c f4b5 c93c
000001b0: 678a f9bc 14a6 1fbc fccf 16bd 06dc e4ba
000001c0: eff8 2ebc 029f 7abd df49 5dbd ed72 76bd
000001d0: d8a7 42bd ac07 673d a9a1 3f3c 8c51 52bd
000001e0: ebf5 3ebd 9d07 51bd a62e 54bd 576c 81ba
000001f0: e7eb 34bc 2257 2abb c898 e8bb 388b e2bc

weight f4 [128]
1.7303382 1.4639184 1.4781896 1.6016763 1.4324116 1.6536479 1.5703552 1.5372299
1.5909535 1.6082822 1.5901803 1.5330031 1.712666 1.6219474 1.5860934 1.6061454
1.6892645 1.7308869 1.6051518 1.6389011 1.3437791 1.8652831 1.7777467 1.800618
1.4894105 1.5182152 1.6157604 1.608891 1.4073433 1.5353428 1.671413 1.5726246
1.6982261 1.7144676 1.7356807 1.7398112 1.5950347 1.6056477 1.5405573 1.7648332
1.5179553 1.5881808 1.715538 1.7093221 1.5493543 1.6498005 1.7019837 1.6221159
1.5475694 1.5818791 1.5851545 1.5809919 1.9136132 1.6144987 1.5152346 1.4237659
1.5868796 1.4578692 1.7646313 1.5441632 1.5926268 1.723611 1.4756261 1.8106397
1.7235221 1.4338261 1.6448511 1.7583824 1.7763972 1.6101388 1.4639546 1.7090917
1.6531428 1.7577006 1.6032507 1.7791052 1.5034684 1.6869564 1.6259135 1.5306332
1.3875929 1.5808827 1.8115816 1.6895986 1.5871435 1.4827489 1.5317153 1.9067451
1.6710544 1.6026584 1.5453689 1.4943259 1.527098 1.7594246 1.6821591 1.3688889
1.5439755 1.5854887 1.5496429 1.6450984 1.5367421 1.5663764 1.4765949 1.5510986
1.5294025 1.6166341 1.6307129 1.6210843 1.5833638 1.6233666 1.4708215 1.7347242
1.5505543 1.5591251 1.6442376 1.5224036 1.541955 1.6407175 1.5318692 1.7103194
1.5967766 1.5586773 1.5306916 1.6192085 1.7838281 1.620468 1.536455 1.589565
00000000: b97b dd3f ae61 bb3f 5135 bd3f bb03 cd3f
00000010: 4359 b73f bcaa d33f 6601 c93f f3c3 c43f
00000020: 5da4 cb3f 31dc cd3f 078b cb3f 7239 c43f
00000030: a438 db3f f99b cf3f 1c05 cb3f 2c96 cd3f
00000040: d239 d83f b48d dd3f 9d75 cd3f 83c7 d13f
00000050: f400 ac3f 99c1 ee3f 348d e33f a77a e63f
00000060: 01a5 be3f e054 c23f 3dd1 ce3f 24f0 cd3f
00000070: d323 b43f 1d86 c43f dcf0 d53f c34b c93f
00000080: 795f d93f ad73 db3f c92a de3f 22b2 de3f
00000090: 192a cc3f dd85 cd3f fb30 c53f 0ee6 e13f
000000a0: 5c4c c23f 8249 cb3f c096 db3f 11cb da3f
000000b0: 3e51 c63f aa2c d33f 9ada d93f 7ea1 cf3f
000000c0: c116 c63f 047b ca3f 58e6 ca3f f15d ca3f
000000d0: 47f1 f43f e5a7 ce3f 35f3 c13f f63d b63f
000000e0: df1e cb3f 759b ba3f 70df e13f 24a7 c53f
000000f0: 32db cb3f 499f dc3f 51e1 bc3f 0bc3 e73f
00000100: 5f9c dc3f 9d87 b73f 7b8a d23f ad12 e13f
00000110: fc60 e33f 0719 ce3f dd62 bb3f 84c3 da3f
00000120: 2f9a d33f 55fc e03f 5237 cd3f b8b9 e33f
00000130: a771 c03f 30ee d73f ef1d d03f caeb c33f
00000140: a59c b13f 5d5a ca3f e8e1 e73f c444 d83f
00000150: 8527 cb3f b7ca bd3f 3f0f c43f 3910 f43f
00000160: 1ce5 d53f e923 cd3f a6ce c53f 1246 bf3f
00000170: f277 c33f d334 e13f fd50 d73f c037 af3f
00000180: fda0 c53f 4bf1 ca3f b35a c63f 9692 d23f
00000190: f7b3 c43f 067f c83f 1001 bd3f 668a c63f
000001a0: 76c3 c33f deed ce3f 33bb d03f b17f cf3f
000001b0: aaab ca3f 7aca cf3f e143 bc3f 710b de3f
000001c0: 9078 c63f 6991 c73f 6176 d23f 1fde c23f
000001d0: c85e c53f 0803 d23f 4a14 c43f bfeb da3f
000001e0: 2d63 cc3f bd82 c73f b4ed c33f 3942 cf3f
000001f0: 7b54 e43f 7f6b cf3f 8faa c43f de76 cb3f
