output/FCNet/1.0/model.pkl (torch, 816543 bytes, 4 tensors)

weight f4 [256, 784]
0	0x3c432195	0.011909862
1	0x3bd60f23	0.006532566
2	0xbc92ee56	-0.017935913
3	0xbc17503b	-0.009235437
4	0x3cddae36	0.02706061
5	0x3b19d068	0.0023470167
6	0x3c5beba5	0.013422881
7	0xbc8912a1	-0.016732516
8	0x3c7d4ccd	0.015460205
9	0x3c8c3c40	0.017118573
10	0x3d1114ff	0.035420414
11	0x3b639bca	0.0034730309
12	0x3c6dd555	0.014516194
13	0x3d20ee3a	0.03928969
14	0x3cc1758c	0.023615621
15	0x3bfacf6b	0.0076541207
16	0xbcf8acbc	-0.030355804
17	0xbc9e2891	-0.019306453
18	0x3b03fde8	0.0020140354
19	0x3c8e3c69	0.01736279
20	0xbc9f66ca	-0.019458193
21	0x3c974a43	0.018468028
22	0x3d10ee1b	0.035383325
23	0x3cbe6e8c	0.023246072
24	0xbc1a877f	-0.009431719
25	0x3d04ca3a	0.03241942
26	0x3cc0e4b4	0.023546554
27	0xbca55ddc	-0.020186357
28	0xbb965c86	-0.0045886664
29	0x3b949904	0.0045348424
30	0xbbc76abd	-0.0060857222
31	0xbb153941	-0.0022769722
32	0x3cacd1ee	0.021096196
33	0x3d18b5d2	0.037282772
34	0xbce522be	-0.027970668
35	0x3c4a7115	0.012356062
36	0xbcbe8056	-0.023254555
37	0xbcc66411	-0.024217637
38	0xbc2eba9c	-0.010664608
39	0xbcbf16cc	-0.0233263
40	0xbcdf1dbc	-0.027235858
41	0xbcdb2646	-0.026751649
42	0x3cced4fe	0.025248047
43	0xbcaa162f	-0.020762531
44	0x3d1e80f6	0.038697205
45	0x3cc0eec4	0.023551352
46	0x3d10e195	0.03537138
47	0xba8362f3	-0.0010023996
48	0x3d1a93f6	0.037738763
49	0xbccd27df	-0.025043426
50	0xbab6d333	-0.001394844
51	0xbceaf770	-0.02868244
52	0xba880665	-0.0010377882
53	0x3caa5b70	0.020795554
54	0x3a9bc3ac	0.0011883876
55	0x3c97cd45	0.018530497
56	0x3d1acc1e	0.037792318
57	0x3d1ee2a6	0.038790368
58	0x3d03725b	0.03209148
59	0xbca0e64a	-0.01964106
60	0xbd0114fd	-0.031514157
61	0xbbb76103	-0.0055962815
62	0xbc8168d1	-0.01579705
63	0x3d1e5946	0.038659357
64	0xbc2b9f1c	-0.010474946
65	0x3d16af64	0.03678836
66	0x3c311364	0.010807846
67	0x3ccb2c50	0.024801403
68	0xbacaf0d0	-0.0015483145
69	0x3d1a25ce	0.03763371
70	0x3c0e66dd	0.008691517
71	0x3bc24e6b	0.0059297583
72	0x3a965e4d	0.0011472196
73	0x3b872d0d	0.0041252435
74	0xbcc54e16	-0.024085086
75	0x3cadf44c	0.021234654
76	0xbc3af9d9	-0.011412107
77	0xbbc1f9a9	-0.0059196544
78	0x3b9fba4b	0.004874503
79	0xbcd76494	-0.026293077
80	0xbc527b9a	-0.012846852
81	0x3ccb071c	0.024783663
82	0x3cd861b2	0.026413772
83	0xbca3574c	-0.019939087
84	0xbcbff688	-0.023432985
85	0x3d18fb9e	0.037349336
86	0x3d096c9c	0.033550844
87	0xbc467021	-0.012111695
88	0x3c929a63	0.017895883
89	0x3cd15514	0.025553264
90	0x3d1516b4	0.036398605
91	0x3cf60140	0.030029893
92	0x3c4cef31	0.0125082
93	0x3ca2887f	0.019840477
94	0xbc8fee9f	-0.017569838
95	0x3d1be306	0.038058303
96	0xbc9c084c	-0.019046925
97	0x3d155904	0.036461845
98	0x3cc49244	0.023995526
99	0xbbceaa28	-0.0063069053
100	0xbcc0d4b6	-0.023538928
101	0x3d05056e	0.03247588
102	0x3ae43152	0.0017409718
103	0x3cf0e9f6	0.029408436
104	0x3c8511af	0.016243784
105	0x3cb3ed4c	0.021963738
106	0x3c71800d	0.014740002
107	0x3d0408d5	0.032234985
108	0x3b993d63	0.0046765073
109	0x3b781169	0.0037852174
110	0x3d1f1254	0.03883584
111	0x3d1ed2f4	0.0387754
112	0x3d150ed4	0.036391094
113	0x3c4be30d	0.01244427
114	0x3c11fe00	0.008910656
115	0xbce61ff1	-0.028091403
116	0x3d08eb22	0.033427365
117	0xbc620659	-0.013795459
118	0x3d06bd33	0.03289528
119	0xbc990d88	-0.01868321
120	0x3c29fb40	0.010374844
121	0x3cbeefb9	0.023307668
122	0x3c7c3e7e	0.015395759
123	0x3c13503f	0.0089913
124	0x3a8af25d	0.0010600794
125	0xbcdd9e80	-0.027053118
126	0xbcb44e86	-0.0220101
127	0x3d387649	0.04503468
128	0xbc827241	-0.015923621
129	0xbcb2a5c2	-0.021807555
130	0x3cbca2db	0.023026874
131	0xbc66e630	-0.014092967
132	0xbc09be22	-0.008407148
133	0x3c23daf8	0.010000937
134	0xbc6ffec2	-0.014648141
135	0xbc912bd8	-0.017721102
136	0x3c6c01b5	0.014404704
137	0xbcf2114b	-0.029549262
138	0x3d17740e	0.036975913
139	0x3cb54af2	0.022130463
140	0xbc648ee1	-0.013950081
141	0xbc019049	-0.007907935
142	0xbc419093	-0.011814254
143	0xbb391e8b	-0.0028246965
144	0x3b425f9a	0.0029659034
145	0x3c869f09	0.016433256
146	0x3ccf1746	0.025279652
147	0x3cb3b0e0	0.021934927
148	0x3ca60807	0.0202675
149	0x3c512f4f	0.012767627
150	0xbca996a1	-0.020701708
151	0x3cc1f965	0.02367849
152	0x3d1c14a5	0.038105626
153	0x3b6296e7	0.0034574808
154	0x3ce99a08	0.02851583
155	0x3d05fba9	0.032710705
156	0xbaad740d	-0.0013233438
157	0x3cd4dc7c	0.025984041
158	0x3cb3903d	0.021919364
159	0x3d2b247b	0.041782837
160	0x3d1ce945	0.0383084
161	0xbc9bd0cd	-0.019020462
162	0xbc33cf40	-0.010974705
163	0x3c66342d	0.014050526
164	0x3cdb0124	0.026733942
165	0x3d02876a	0.031867422
166	0x3c970267	0.018433763
167	0xbb9fcf21	-0.0048769866
168	0x3d0b14fb	0.033955555
169	0x3d1a0482	0.037601955
170	0xbaf1372f	-0.0018403287
171	0x3c075584	0.008260135
172	0x3d1c163c	0.03810714
173	0xbc413625	-0.011792694
174	0x3cdad4f6	0.026712876
175	0xbc228f9b	-0.0099219335
176	0x3cf8226a	0.030289847
177	0x3cce9c98	0.025221154
178	0xbcc13ea4	-0.02358944
179	0x3d205271	0.039141122
180	0x3d13df8b	0.03610186
181	0x3c42ca66	0.011889076
182	0x3d03edd3	0.03220923
183	0xbc057230	-0.0081449
184	0x3bf4841f	0.007462039
185	0xbb5433e3	-0.003237956
186	0xbc13f983	-0.009031656
187	0x3b8f4cc9	0.004373167
188	0x3cccfb1b	0.02502208
189	0xbc031197	-0.007999799
190	0x3c802015	0.015640298
191	0xbcceed5b	-0.025259664
192	0xbafccd0f	-0.0019287186
193	0xbcc1e74c	-0.023669861
194	0xbbaff29f	-0.005369499
195	0x3bffee6b	0.007810404
196	0x3c31a084	0.010841493
197	0x3c8bd44d	0.017069006
198	0x3c7a925d	0.015293685
199	0x3ce627a6	0.028095078
200	0xbceb6b94	-0.02873782
201	0xbc9deb88	-0.01927735
202	0xbc142a2d	-0.009043259
203	0xbc9d059f	-0.01916772
204	0x3c783814	0.015150089
205	0x3cb00290	0.021485597
206	0x3c185814	0.009298343
207	0x3cb25fcb	0.021774193
208	0x3c1fce65	0.009753798
209	0x3cebeb57	0.028798742
210	0x3b6b24d6	0.003588011
211	0xbc6be5cd	-0.0143980505
212	0xbc482505	-0.012215857
213	0xbc458e81	-0.012057901
214	0xbb416631	-0.0029510374
215	0x3ce65fe1	0.02812189
216	0xbca5f3bd	-0.020257825
217	0xbcf5977d	-0.029979462
218	0xbc8242e2	-0.015901033
219	0xbd014f47	-0.031569745
220	0x3b112017	0.0022144371
221	0x3cc8bd60	0.024504364
222	0x3ada3db2	0.0016650467
223	0x3c1db70d	0.009626162
224	0xbc7614b7	-0.015019587
225	0x3d02a57e	0.031896107
226	0x3cbadc4a	0.02281012
227	0x3d0e12a5	0.03468575
228	0xbce2f076	-0.027702551
229	0x3ce4b5c8	0.027918711
230	0xba7bcb02	-0.00096051407
231	0xbc61bb5c	-0.01377758
232	0xbccc4d75	-0.024939278
233	0x3c87cd8f	0.01657751
234	0x3c8f526f	0.017495362
235	0xbc2c0c93	-0.010501045
236	0xbd328625	-0.04358496
237	0x3d08349a	0.03325329
238	0xbcd215c7	-0.02564515
239	0xbcb9e3b1	-0.02269158
240	0xbd03852e	-0.032109432
241	0xbd06782c	-0.03282945
242	0x3cb3d64c	0.02195277
243	0xba57b9cf	-0.0008229287
244	0x3c77d6a0	0.015126854
245	0xbca3a6f2	-0.019977067
246	0x3d197df8	0.03747365
247	0x3bf13fa3	0.0073623224
248	0xbc8e4e1c	-0.01737123
249	0x3ccdffb2	0.02514634
250	0x3c12fa44	0.008970801
251	0xbbbf6844	-0.005841287
252	0xbccc24f1	-0.024919959
253	0x3c2d4970	0.010576591
254	0xbc9a51b6	-0.018837791
255	0x3ccf20d2	0.025284205

bias f4 [256]
0	0x3ccb922a	0.02484997
1	0xbc2d5f89	-0.010581859
2	0x3cacab07	0.021077646
3	0x3b97624b	0.0046198717
4	0xbc9bd3d3	-0.019021904
5	0xbdada895	-0.0847942
6	0xbc840556	-0.016115826
7	0xbc092eed	-0.008373004
8	0xbc67eee1	-0.014156074
9	0xbdaaabc6	-0.083335444
10	0xbd8c54c5	-0.06852106
11	0xbcc561c3	-0.024094468
12	0xbd7b755e	-0.061391227
13	0xbd8a938a	-0.06766422
14	0xbb8ec4a3	-0.004356937
15	0xbda4b4ec	-0.080423206
16	0xbc76d676	-0.01506578
17	0xbbd48ae8	-0.0064862855
18	0xbbeb3d6b	-0.0071789525
19	0x3c72c62b	0.014817755
20	0xbd1adc12	-0.03780753
21	0xbc97e636	-0.01854239
22	0xbb128f70	-0.0022363327
23	0xbc8fc7fe	-0.017551418
24	0xbcd3a256	-0.025834244
25	0x3b8f4c7c	0.0043731313
26	0x3c2a6ea7	0.010402358
27	0xbc88d190	-0.01670149
28	0xbd1179b9	-0.035516474
29	0xbd1ba259	-0.037996624
30	0xbd03b2b9	-0.032152865
31	0xbd10bdb6	-0.035337172
32	0xbd326966	-0.043557547
33	0xbc86ba57	-0.016446276
34	0xbd185805	-0.037193317
35	0xbc7e0221	-0.015503437
36	0xbc78fa85	-0.015196447
37	0xbbc82fc5	-0.00610921
38	0xbc2c8296	-0.010529181
39	0xbd452125	-0.048127312
40	0x3b7fdc5c	0.0039041257
41	0x3bc7606e	0.0060844934
42	0xbcef9fb3	-0.029250955
43	0xbd060625	-0.032720704
44	0x3cc38801	0.023868563
45	0xbb4de2f2	-0.0031415788
46	0xbcef5ea6	-0.029219937
47	0xbbadb357	-0.00530092
48	0x3c7d733a	0.015469367
49	0xbcbdb515	-0.023157636
50	0x3c307a9c	0.01077142
51	0xbc835c6b	-0.01603528
52	0x3cdceb06	0.026967537
53	0x3b3b9d4c	0.0028627692
54	0x3c9e8091	0.019348415
55	0x3c9ba0eb	0.01899763
56	0xbd03ca8a	-0.03217558
57	0xbd1736d9	-0.03691754
58	0xbce4c66a	-0.027926642
59	0x3c8de209	0.017319696
60	0xbc8882fc	-0.01666402
61	0xbceb321a	-0.028710414
62	0xbd645491	-0.05574471
63	0xbc41637b	-0.011803503
64	0xbcf46e46	-0.029837739
65	0x3c28767d	0.010282156
66	0x3cd212af	0.025643675
67	0xbd1eb32c	-0.03874509
68	0xbd22e7aa	-0.039771713
69	0x3cc2ef58	0.023795769
70	0xbd26c9ec	-0.04071991
71	0xbcea5d7d	-0.028609032
72	0xbd8499ee	-0.06474672
73	0x3baa2240	0.005192071
74	0xbd8bed22	-0.06832339
75	0xbd26f1b6	-0.040757857
76	0x3c6ec8a6	0.0145742055
77	0xbc8e5c7c	-0.017378084
78	0xbd336a84	-0.043802753
79	0x3b83ee74	0.0040262286
80	0xbd30b3e6	-0.043140315
81	0xbc9d4673	-0.019198632
82	0xbb8c3d72	-0.004279786
83	0xbd6d6f17	-0.05796727
84	0x3c0e6c1e	0.008692769
85	0xbd0ee748	-0.034888536
86	0xbc7a1497	-0.015263698
87	0xbd215d89	-0.039395843
88	0xbd76cf56	-0.060256325
89	0xbd1bb4c3	-0.038014185
90	0xbb302716	-0.0026878766
91	0xbd46177d	-0.048362244
92	0x3cc10e0e	0.023566272
93	0xb9f1e05d	-0.00046134266
94	0xbcb865b2	-0.02250943
95	0xbda3f9e4	-0.08006647
96	0xbd4d98f0	-0.05019468
97	0x3c6ed90a	0.014578113
98	0x3ba6401e	0.0050735613
99	0xbc88664f	-0.016650347
100	0xbd640d68	-0.055676848
101	0xbd24f481	-0.04027224
102	0xbb5f5446	-0.003407733
103	0x3c886740	0.016650796
104	0xbd8a72cd	-0.06760178
105	0xbd08bdc1	-0.03338409
106	0xbcbdf41d	-0.023187691
107	0xbd65d5b2	-0.056112
108	0x3c96af88	0.018394247
109	0x3c0a5659	0.008443438
110	0xbcdaee66	-0.026725005
111	0xbd2a9e73	-0.041655015
112	0x3b557dd0	0.003257621
113	0x3bc117ad	0.005892715
114	0xbc6829cc	-0.014170121
115	0xbd68dc28	-0.056850582
116	0xbc634d38	-0.013873391
117	0xbcc34258	-0.023835346
118	0xbd90be12	-0.07067503
119	0xbd131cfb	-0.03591631
120	0xbc0d4755	-0.008622964
121	0xbc1a832a	-0.009430686
122	0xbd241c93	-0.040066313
123	0xbc74e235	-0.01494651
124	0xbc2c91b7	-0.010532788
125	0x3bf02dd7	0.0073296833
126	0xbc62ea2b	-0.013849775
127	0xbc540674	-0.012940992
128	0x3c9ce130	0.019150347
129	0xb9fef530	-0.00048629334
130	0xbced9feb	-0.029006919
131	0xbd226733	-0.0396492
132	0xbd7c2a9c	-0.061564073
133	0xbcbedf3d	-0.023299808
134	0x3c3ef760	0.0116556585
135	0xbd06a148	-0.032868654
136	0x3d1ad5a2	0.037801392
137	0xbc4e287b	-0.0125828935
138	0xbca95b09	-0.020673292
139	0xbc845575	-0.01615403
140	0xbd338674	-0.043829396
141	0x3add2c83	0.0016874227
142	0x3c6c9319	0.014439368
143	0xbb8ee5a1	-0.00436087
144	0xbd084a9e	-0.033274285
145	0xbc5ebc43	-0.01359469
146	0xbbd9d7f4	-0.006648058
147	0x3c697cb4	0.014250923
148	0xbd267da2	-0.040647157
149	0x3d1682d5	0.036745865
150	0xbc32b8c4	-0.010908309
151	0x3bedd1c6	0.007257673
152	0xbd25c009	-0.040466342
153	0xbbe53eb8	-0.006996002
154	0xbc4b9db6	-0.012427738
155	0xbc56bc7d	-0.013106463
156	0xbd6fb6fd	-0.05852412
157	0x3cd4dc2c	0.025983892
158	0x3ce1fb3b	0.027585616
159	0xbc380b99	-0.011233234
160	0xbce27519	-0.027643727
161	0x3ce49ba9	0.027906256
162	0xbd5a3ec9	-0.053282533
163	0x3cdea2e2	0.027177278
164	0x3c91593a	0.017742742
165	0xbb4a8c37	-0.0030906328
166	0xbce352d0	-0.027749449
167	0xbd17ade7	-0.03703108
168	0xbbf20dcf	-0.0073869
169	0xbbbb251a	-0.00571121
170	0xbd44d5f7	-0.048055615
171	0xbcad9c56	-0.02119271
172	0xbd422bb5	-0.047404964
173	0xbd8c14ca	-0.06839903
174	0x3ccd7baf	0.025083391
175	0xbd4f2419	-0.050571535
176	0xbccec8a7	-0.025242163
177	0xbceef292	-0.0291684
178	0xbd0f42fd	-0.034975994
179	0x3bdf6b48	0.006818209
180	0xbc77a034	-0.015113879
181	0xbd208223	-0.039186608
182	0xbd840a28	-0.0644725
183	0x3d0255bd	0.031820048
184	0xbc8aa114	-0.016922511
185	0xbcc7aed3	-0.024375355
186	0xbd527521	-0.051381234
187	0xbbef1013	-0.0072956174
188	0xbcee5bc5	-0.029096493
189	0x3bd2b40d	0.006430155
190	0x3b85581b	0.004069341
191	0xb96d574b	-0.000226346
192	0xbc4c38fd	-0.012464759
193	0xbd8f970e	-0.07011233
194	0x3c36943b	0.011143739
195	0xbc9e33cc	-0.019311808
196	0xbce5da92	-0.028058324
197	0x3bf51b1e	0.0074800393
198	0xbd683f25	-0.056700844
199	0xbd53b3f4	-0.05168529
200	0xbc808e65	-0.015692899
201	0xbbe5532d	-0.0069984407
202	0x3c16a921	0.009195597
203	0xbd1dfba8	-0.038570076
204	0xbd577a2d	-0.05260675
205	0xbc7dc242	-0.015488209
206	0xbd70a83f	-0.058754202
207	0x3b137e46	0.0022505685
208	0xbca58d6d	-0.020209039
209	0xbd1e2b97	-0.03861579
210	0xbdaf938c	-0.08573064
211	0xbd64ce73	-0.055860948
212	0xbc280c02	-0.010256769
213	0xbcf61c0c	-0.03004267
214	0xbc2f52fe	-0.010700939
215	0xbd78601d	-0.060638536
216	0x3c238604	0.009980682
217	0xbc13cf92	-0.009021657
218	0xbd67d2aa	-0.05659739
219	0xbd1f02a1	-0.038820866
220	0x3c713d63	0.014724108
221	0xbc1b9b9d	-0.00949755
222	0x3c9521a5	0.01820452
223	0x3c690e8c	0.01422466
224	0x3a59f5c6	0.0008314516
225	0x3cf72fe6	0.030174207
226	0xbc139e09	-0.0090098465
227	0xbc6a463d	-0.014298973
228	0xba5c8101	-0.0008411557
229	0xbd69158b	-0.05690531
230	0xbcb6b38d	-0.022302413
231	0xbd96f704	-0.07371333
232	0xbcb190a4	-0.021675415
233	0x3b733961	0.0037113058
234	0xbd2fa6cc	-0.04288368
235	0xbd521935	-0.05129357
236	0x3c85ee87	0.01634909
237	0x3c96e623	0.018420285
238	0xbcaf434c	-0.021394394
239	0xbcb28b7c	-0.021795027
240	0xbd2f95cf	-0.042867478
241	0x3a920a61	0.0011142009
242	0xbd581226	-0.052751683
243	0x3ca10a14	0.019658126
244	0xbbe39dee	-0.006946317
245	0x3a8e355a	0.001084964
246	0xbd2a8a16	-0.041635595
247	0xbd0cf0c3	-0.034409296
248	0x3af910a5	0.0019002153
249	0xbcf20725	-0.029544422
250	0xbcab2c04	-0.020895012
251	0xbcdb8cd6	-0.026800554
252	0xbd44d012	-0.048049994
253	0x3a5f7aa0	0.00085250475
254	0xba49c2b0	-0.0007696552
255	0xbd12714d	-0.035752583

weight f4 [10, 256]
0	0xbd997e5b	-0.074948035
1	0xbd7575bf	-0.059926745
2	0x3c011904	0.007879499
3	0xbd3527a3	-0.044227254
4	0xbd3fd604	-0.04683496
5	0x3e043989	0.12912573
6	0x3d15e717	0.036597338
7	0xbd60455f	-0.054753657
8	0x3d1676bc	0.036734328
9	0xbd05318f	-0.032517966
10	0x3dd7028c	0.10498533
11	0xbe96de8f	-0.29466674
12	0xbe115635	-0.14193042
13	0x3d849d2a	0.06475289
14	0x3e04f588	0.12984288
15	0xbe7e9094	-0.2485984
16	0xbcad8d2a	-0.021185476
17	0x3bcbfbcf	0.0062250863
18	0xbba2bca1	-0.004966334
19	0x3d16f599	0.036855314
20	0x3c15d965	0.009146069
21	0xbdd36004	-0.10321048
22	0x3e1ed8b7	0.15512358
23	0xbd08129d	-0.033220876
24	0xbe88aa04	-0.26692212
25	0x3b6196aa	0.0034422078
26	0x3c236ee0	0.009975165
27	0x3d127898	0.03575954
28	0xbca2c64f	-0.019869952
29	0xbd162113	-0.036652636
30	0xbde8e003	-0.11370852
31	0x3c3f037f	0.011658548
32	0x3d4cfa0a	0.050043143
33	0x3b6d2102	0.0036183004
34	0x3dccc8a5	0.099992074
35	0x3cf241da	0.029572416
36	0xbd61ed74	-0.055158094
37	0x3ccfd426	0.025369715
38	0x3d1a913e	0.03773617
39	0xbe864754	-0.26226294
40	0xbbd9be99	-0.0066450355
41	0xbb0675b0	-0.0020516925
42	0x3ca0624e	0.019578125
43	0xbd819006	-0.063262984
44	0xbe439c61	-0.19102623
45	0x3c4f8baa	0.012667576
46	0xbd5e2d94	-0.054242685
47	0x3c560a9e	0.013064055
48	0xbeb5be24	-0.35496628
49	0xbcafdc66	-0.021467399
50	0x3bcb0bd4	0.0061964784
51	0xbd32fb80	-0.04369688
52	0xbd2cd46c	-0.04219477
53	0xbd81e738	-0.063429296
54	0x3d97d541	0.07413722
55	0x3e140c82	0.14457896
56	0x3d0f8f1e	0.035048597
57	0x3c5c26d9	0.013436996
58	0xbb8cf6e3	-0.004301892
59	0x3e1bd1fc	0.15216821
60	0x3b1fb401	0.0024368765
61	0xbb0bfce9	-0.0021360463
62	0xbd842751	-0.064528115
63	0xbbb8f0ce	-0.0056439405
64	0x3be59f60	0.0070075244
65	0x3c96a08f	0.018387107
66	0x3d1e0f58	0.03858885
67	0xbe390752	-0.18069199
68	0x3ce72a93	0.028218543
69	0xbc33fc31	-0.01098542
70	0xbb868946	-0.0041057197
71	0xbcbea4e8	-0.023271993
72	0xbe5bbf4b	-0.21459691
73	0xbc7b0f1e	-0.015323428
74	0x3e15ae2e	0.14617226
75	0x3d4401f0	0.04785341
76	0x3d19f8c2	0.03759075
77	0xbd8e73a1	-0.06955648
78	0xbd0c9ab9	-0.034327243
79	0x3de0e872	0.109818354
80	0xbb92f973	-0.004485303
81	0xbca10912	-0.019657645
82	0xbe4501d8	-0.19238985
83	0x3d94f1dc	0.072726935
84	0xbbd11c65	-0.0063815587
85	0x3da53876	0.0806741
86	0xbd573307	-0.052538898
87	0xbeba0555	-0.36332193
88	0xbe593c22	-0.21214345
89	0xbd9a431a	-0.0753233
90	0xbe18db51	-0.14927413
91	0xbdaa8a07	-0.08327108
92	0x3c1bb596	0.009503743
93	0x3e6d154d	0.23152657
94	0x3c629184	0.013828639
95	0xbe6219d3	-0.22080164
96	0xbe808d5a	-0.25107843
97	0xbf22a83c	-0.63537955
98	0xbe558dba	-0.20854846
99	0x3c39df35	0.011344721
100	0xbe80d9ad	-0.25166073
101	0x39987fab	0.0002908682
102	0xbe8a30aa	-0.26990253
103	0xbd1af3b3	-0.037830066
104	0x3d2710bc	0.040787444
105	0x3b8c2db5	0.0042779096
106	0x3d2918d2	0.041283436
107	0xbdf56a5f	-0.11983179
108	0xb7005d1e	-7.651075e-06
109	0xbc51cecc	-0.012805652
110	0xbd72c088	-0.059265643
111	0x3cbcdeb3	0.02305541
112	0xbccd6b12	-0.02507547
113	0x3d0170f6	0.03160187
114	0xbc31c287	-0.010849602
115	0xbcfa3ccb	-0.030546566
116	0x3ccb54ea	0.024820764
117	0xbcbd73fb	-0.023126593
118	0x3e0611be	0.13092706
119	0x3d891b6e	0.06694685
120	0xbe0fa6f7	-0.14028536
121	0x3c7054e1	0.014668674
122	0x3aee67ab	0.0018188854
123	0x3d35b41a	0.04436121
124	0x3b8f36e4	0.004370557
125	0x3bf65147	0.0075170132
126	0xbd8927ce	-0.06697045
127	0x3cf3f07f	0.029777763
128	0xbb87e2bf	-0.0041469033
129	0xbd869c5f	-0.06572794
130	0xbd0af8c6	-0.033928655
131	0xbdcc7654	-0.09983507
132	0xbad3941e	-0.0016142165
133	0xbcc53862	-0.024074737
134	0x3cf4e947	0.029896392
135	0x3dea87ef	0.114517085
136	0x3db63be3	0.08898141
137	0xbd403711	-0.046927515
138	0xbceb7dac	-0.028746448
139	0xbd34fd6e	-0.044187002
140	0x3e4916b3	0.19637565
141	0x3d11fa35	0.035639007
142	0xbc44c639	-0.012010151
143	0xbd4c9ba8	-0.049953133
144	0x3d0591f0	0.03260988
145	0x3da7099d	0.081561305
146	0xbd573bc7	-0.052547242
147	0x3d167395	0.03673132
148	0x3c5708c3	0.013124648
149	0x3df9d0b8	0.12198013
150	0x3d59398b	0.053033393
151	0x3c91f434	0.01781664
152	0x3df6df89	0.12054355
153	0x3e362169	0.17786182
154	0x3d2c2664	0.0420288
155	0xbda51985	-0.08061508
156	0x3b9ee2eb	0.004848828
157	0x3c6afe52	0.014342861
158	0xbd2dfef2	-0.042479463
159	0xbc5f686a	-0.013635734
160	0xbe3609c0	-0.17777157
161	0x3d40e5ea	0.047094263
162	0xbe43a5b7	-0.19106184
163	0xbcc77408	-0.02434732
164	0x3ba8202d	0.005130789
165	0xbd626d71	-0.055280153
166	0x3c871b5b	0.016492536
167	0xbe747e2f	-0.2387626
168	0x3b26c1c5	0.0025445085
169	0x3b8260c9	0.003978823
170	0xbe0f6e1a	-0.14006844
171	0x3d5aa07d	0.05337571
172	0xbd3f6c7d	-0.04673432
173	0x3dc3a867	0.095536046
174	0xbe4c523d	-0.19953246
175	0x3cc5d1a9	0.024147825
176	0xbe4296d1	-0.19002844
177	0xbd5dc2f2	-0.054140992
178	0xbb76313d	-0.003756597
179	0x3caa1ec4	0.020766623
180	0xbe9b0de7	-0.30284044
181	0xbd3a6e62	-0.045515426
182	0xbedebd6e	-0.43503898
183	0xbf203ae4	-0.6258986
184	0x3d7fda57	0.062464084
185	0x3c67cba0	0.014147669
186	0xbd5e89f7	-0.054330792
187	0xbe78c896	-0.24295267
188	0xbd0ff38e	-0.03514438
189	0x3db8a42f	0.090156905
190	0x3cacdf72	0.02110264
191	0x3e03b20b	0.12860887
192	0x3d508262	0.050905593
193	0xbd49cd03	-0.04926778
194	0xbd0cb7a8	-0.034354836
195	0xbd2c9326	-0.04213252
196	0xbd7403bc	-0.059573874
197	0xbc9091a9	-0.017647581
198	0x3d8be0a9	0.0682996
199	0xbd3ee7fe	-0.046607964
200	0xbd5f6907	-0.05454352
201	0x3ca8e999	0.0206192
202	0x3c1455a8	0.009053625
203	0xbd83870f	-0.06422245
204	0xbc18f392	-0.009335415
205	0x3b0c5237	0.0021411309
206	0x3def70d9	0.11691446
207	0xbd8794a0	-0.06620145
208	0xbdf1b444	-0.11801961
209	0x3ce44791	0.027866157
210	0xbc17459d	-0.009232906
211	0xbe0fed84	-0.14055449
212	0xbe14a47e	-0.14515874
213	0xbb815343	-0.003946693
214	0xbcccff09	-0.025023954
215	0xbe1328fe	-0.14371106
216	0xbab6f93c	-0.0013959776
217	0xbd4f5143	-0.050614607
218	0xbde74c15	-0.11293808
219	0xbe9228ed	-0.2854685
220	0x3ba02e93	0.0048883646
221	0xbd3888b4	-0.045052245
222	0xbc1463df	-0.009057014
223	0x3d05ea34	0.032694057
224	0xbd26cafd	-0.04072093
225	0xbd80bc4c	-0.06285915
226	0x3cea6ec0	0.028617263
227	0xbd5970da	-0.05308614
228	0x3c684822	0.014177354
229	0xbb4c1048	-0.0031137634
230	0xbe9dee8f	-0.30846068
231	0xbe9f0b65	-0.3106338
232	0xbe352d60	-0.1769309
233	0xbd5dda70	-0.054163396
234	0xbd592fba	-0.05302403
235	0xbc39dc28	-0.011343993
236	0x3b085cae	0.0020807195
237	0x3cb1d55c	0.021708183
238	0xbc983329	-0.018579083
239	0x3d048ec1	0.032362703
240	0x3e33e150	0.17566419
241	0xbe55a187	-0.20862399
242	0x3db9ce2f	0.090725295
243	0xbe94df06	-0.29076403
244	0xbd7fb967	-0.062432673
245	0x3d480491	0.04883248
246	0x3ae99cdc	0.0017823237
247	0xbd381f81	-0.04495192
248	0xbd746f08	-0.0596762
249	0xbe428331	-0.18995358
250	0x3d245ebf	0.04012942
251	0xbd64967f	-0.055807587
252	0x3dbf6a17	0.09346407
253	0x3d9ba452	0.07599701
254	0xbcd5a026	-0.026077341
255	0xbd10c087	-0.03533986

bias f4 [10]
0	0xbe06b8e4	-0.13156468
1	0xbe31495f	-0.17313145
2	0xbd2e86e5	-0.042609114
3	0xbde822d3	-0.11334767
4	0x3b40c267	0.0029412748
5	0xbd92d41d	-0.07169364
6	0x3d61d6ea	0.0551366
7	0xbe24c410	-0.16090417
8	0x3eaf6f6b	0.34264693
9	0x3db7d9a4	0.089770585
