output/FCNet/0.7/model.pkl (torch, 816543 bytes, 4 tensors)

weight f4 [256, 784]
000000 be 52 58 3b c9 3e ed 3c 8d e0 74 3d be 50 db bb
       0.0033008303 0.028960602 0.05978446 -0.006692975
000010 95 0f 08 3d 13 fa 1b 3d 88 01 17 bc 79 f2 fa 3c
       0.033217985 0.038080286 -0.009216674 0.030633198
000020 fe 66 49 3d cd af f9 3c 5d 83 d4 3c fe b3 00 bc
       0.049170487 0.030479336 0.025941545 -0.0078554135
000030 08 63 c1 3a de 62 24 3c 73 d1 c8 3c a0 d8 31 3d
       0.0014754245 0.010033337 0.024513936 0.04341948
000040 a3 b5 b6 3c 2a 24 e7 bb d0 b1 5e 3d 1e 25 3a 3d
       0.022303408 -0.0070538716 0.054368794 0.045445554
000050 d2 00 bd 3c fe 4c cd 3c 96 d2 1b 3d 35 40 4b 3d
       0.02307168 0.025061127 0.038042627 0.04962178
000060 54 78 2e 3c 16 b9 08 3d 58 42 66 3d 1a 49 11 bc
       0.010648806 0.033379637 0.056215614 -0.008867526
000070 5f 6c d5 3c 31 c9 e8 38 fa d5 61 3c bf 8c 29 3d
       0.026052652 0.00011100097 0.013783926 0.04139399
000080 3e 54 69 3d 83 5a 61 3d 71 ca e8 bb d5 f6 3e 3d
       0.056965105 0.05501796 -0.007104211 0.046622116
000090 e1 f2 10 3c 03 26 69 3d 97 52 f4 3a 92 90 ce 3c
       0.008846969 0.056921016 0.0018640336 0.02521542
0000a0 3c 1c 74 3c 5d a4 56 3c b0 85 36 3d fc 13 7d 3d
       0.01489931 0.013100711 0.044561088 0.061786637
0000b0 06 41 22 3d ec fa e5 3c 49 71 38 3d 1f cf 88 3c
       0.039612792 0.02807375 0.045029912 0.016700326
0000c0 e7 54 5a 3c c6 93 8f 3c 70 a0 c4 3c d5 8d 34 3d
       0.013325906 0.017526519 0.024002284 0.044080574
0000d0 ad de 68 3d 5f 85 4e 3d 88 46 7f 3b 38 19 e9 3c
       0.056852985 0.05042016 0.0038951952 0.028454408
0000e0 bd c3 0d bb d6 ef 1c 3b 4b a4 e9 3c d7 75 14 3d
       -0.0021631562 0.0023946664 0.028520724 0.036245193
0000f0 43 b4 03 3d b5 14 0f 3d bd 84 27 3d 60 c3 4d 3d
       0.032154333 0.034931857 0.040898073 0.050235152
000100 78 90 86 3d cc ff 2c 3d 9b ef 42 3d ba 67 b0 3d
       0.06570524 0.042236134 0.047591787 0.08613534
000110 92 bd e7 3d 61 cd 84 3d d8 05 b2 3d 25 58 94 3d
       0.113154545 0.064844854 0.08692521 0.07243375
000120 57 f4 b5 3d 4b d3 29 3d 7e f6 34 3d d6 5a 60 3d
       0.08884495 0.04146127 0.044180386 0.054774128
000130 53 00 c5 3c c3 18 f8 3b 38 ec 58 3d e3 59 c0 ba
       0.024048006 0.007571311 0.05295965 -0.0014675226
000140 17 c9 f1 3b 8e b5 26 3d 8f a1 3c 3d c3 5a 1d 3d
       0.007378708 0.040700488 0.04605251 0.038416635
000150 97 1b 10 bb c5 c7 ab ba 1f fd 80 bb 49 10 2c 3d
       -0.00219891 -0.0013105801 -0.0039364244 0.04200772
000160 7f 44 0f 3d fa e0 3e bb 0e 7b f0 3c 8a af 38 3d
       0.034977432 -0.0029125796 0.029355552 0.045089282
000170 c1 82 b9 3c 15 ea bf 3d ef 9f ab 3d f0 6c ec 3d
       0.022645356 0.093708195 0.08380114 0.11544216
000180 e5 82 fc 3d 52 e8 f0 3d f7 bc 25 3e f1 28 81 3c
       0.12329654 0.117630616 0.16185366 0.015766593
000190 a2 98 7e 3d 56 42 63 3d 15 46 5e bc bd 96 77 3c
       0.06215728 0.055483185 -0.013566514 0.015111622
0001a0 ac d7 6c bc aa 69 4d 3d 98 48 68 3c 83 e0 fa 3c
       -0.014455717 0.050149597 0.014177464 0.030624634
0001b0 70 4d 23 3c 42 ee ca 3c 04 b0 12 3d b4 92 9a 3c
       0.009967193 0.024771813 0.035812393 0.018868782
0001c0 71 d1 a8 3b b2 53 8e bb 09 81 f9 3c b8 ca 3d 3c
       0.0051519205 -0.0043434734 0.030457037 0.011583976
0001d0 90 20 87 3c b2 95 13 3d 43 9a 27 3c fd 9d d5 3b
       0.01649502 0.036031432 0.01022965 0.006519078
0001e0 d6 dd a4 3d f2 39 e0 3d 0f 3c 25 3e f7 03 1b 3e
       0.08050124 0.10948552 0.16136192 0.15138231
0001f0 75 9b cd 3d 84 79 81 3d 25 77 2e bd 23 b2 ff bc
       0.10039417 0.063220054 -0.042594094 -0.031212872
000200 4f 3e 88 3d ec 95 11 3d 2c 2f 30 3a d3 ae 58 3c
       0.066525094 0.035543367 0.00067208963 0.013225275
000210 16 74 9d bc b2 52 12 3d a8 83 71 bb 25 2f 24 3c
       -0.019220393 0.035723396 -0.0036852155 0.010021006
000220 51 4e 92 bc f4 1d 0a 3d 7c ed 15 bc d7 fc 4a 3d
       -0.01785961 0.03371997 -0.009150859 0.049557533
000230 ef 75 2e 3d 47 96 3e 3d fd a0 f0 3c 06 5c 2e 3d
       0.04259294 0.046530034 0.02937364 0.04256823
000240 86 e1 ea bb 39 de 04 3d 65 9c ca 3c b5 18 30 3c
       -0.007167998 0.03243849 0.024732778 0.010748078
000250 fb 72 05 3b 12 81 74 bb 66 2c 35 3d a0 f5 e4 3b
       0.0020362723 -0.0037308377 0.044231795 0.0069872886
000260 ec 28 2d bd f1 8c b0 bd 09 b7 a4 bd 92 70 08 bd
       -0.042275354 -0.086206324 -0.08042724 -0.03331048
000270 71 36 92 3d 99 25 79 3d c8 c0 bd bd 78 0a 1e 3c
       0.0713929 0.06082687 -0.09265286 0.009646051
000280 6e bc 30 bc 91 12 e4 bb ed 1d 48 bd eb 79 aa 3c
       -0.010787113 -0.006960221 -0.048856664 0.020810088
000290 1f ea f6 bc 54 a0 84 bc b4 dd 76 3c 57 1f 9c 3c
       -0.030140935 -0.016189732 0.015067507 0.019057913
0002a0 b5 45 45 3d 6a 23 59 3c d0 95 57 bc 20 20 c8 3a
       0.04816218 0.013253072 -0.013158277 0.0015268363
0002b0 eb 40 c0 bc 4b 24 5b bd a9 b1 01 bc 4b 27 c5 bd
       -0.023468455 -0.05350141 -0.007915893 -0.09626635
0002c0 be dc d3 bd 63 8e 2b be 53 a5 cf bd 4d 96 81 bd
       -0.103448376 -0.16753535 -0.10138955 -0.06327496
0002d0 09 26 13 be ec 01 5f be ce d4 13 be 2f cc e0 bd
       -0.14369978 -0.21778077 -0.14436647 -0.10976445
0002e0 5a a6 21 bd 59 02 95 bd 11 ce c0 bd 85 00 22 be
       -0.039465286 -0.072758384 -0.09414304 -0.1582051
0002f0 16 19 de bd b7 54 44 bd 60 7a 6f bd 7c 16 80 bd
       -0.108446285 -0.047932353 -0.058466315 -0.062542886
000300 75 b8 db bc 5f b7 1b 3d cc 70 e3 3c d4 f4 6d 3d
       -0.026821354 0.038016673 0.027763747 0.058094814
000310 ab 68 96 ba f1 eb 16 3d a1 25 83 3c 88 b7 ea bc
       -0.0011475285 0.036846105 0.016009154 -0.028651968
000320 d9 7b e7 3b e9 01 6b bd 97 7a aa bd 02 fa fb bd
       0.0070643243 -0.05737487 -0.083241634 -0.123035446
000330 80 ca 03 be 7e a8 3d be d3 9c 83 bd fe b5 60 39
       -0.12870216 -0.18521306 -0.06426396 0.00021430102
000340 4a 2c d6 bd 7f e8 cc bd ae c5 61 bd bd a3 40 3c
       -0.10457666 -0.100052826 -0.055120163 0.011757788
000350 30 9a f6 bd 6f 8e c9 bd bc 79 2c be e8 0f cf bd
       -0.12041128 -0.0984162 -0.16843313 -0.10110456
000360 71 9b b9 bd d6 39 ad bd 40 e1 66 bd f2 f6 27 be
       -0.09062851 -0.08458297 -0.05636716 -0.16402796
000370 c2 02 52 bd 62 a9 1d bc f9 af fa 3c 63 21 44 3c
       -0.05127216 -0.009622904 0.030601488 0.011970851
000380 90 1d b9 bb 83 ca 1a 3d ca bc 21 3d 75 39 29 3a
       -0.005649276 0.037790786 0.039486684 0.00064554
000390 ff a3 af 3c cb 89 93 bd ff df c5 bd 8e bb 10 bd
       0.021440504 -0.07204016 -0.096618645 -0.035335116
0003a0 bd e1 05 bd 95 ad 71 bd fc 12 76 bd fe 7a be b9
       -0.032685984 -0.05900343 -0.0600767 -0.0003633126
0003b0 ce 33 9a bd bb e0 8b 3c 60 1c 6a 3d 7f c1 6b 3c
       -0.07529412 0.017074933 0.057155967 0.014389395
0003c0 ba 94 7c bd 6b ea f1 bd dc cf 70 be fe 58 52 be
       -0.061665274 -0.1181229 -0.23516792 -0.2054176
0003d0 ce 03 79 bd c5 0b 3a bd 95 94 28 be 80 57 1b be
       -0.060794644 -0.04542138 -0.1646293 -0.15170097
0003e0 24 2c d1 bd f0 8f 46 bd 29 bb 1b 3d 59 0b c1 3b
       -0.10213497 -0.048477113 0.038020287 0.0058912453
0003f0 87 50 1f 3c 22 2c b2 3c 76 97 88 3c dd 91 71 bc
       0.009723789 0.02174956 0.016673785 -0.014744249

bias f4 [256]
000000 00 2b 44 bd 9d 53 32 3a 65 ed 02 3c 12 d5 cf 3b
       -0.04789257 0.00068026205 0.00799117 0.0063425386
000010 c3 72 dd 38 3d cb 19 bd 7d 09 27 bd 46 18 4f 38
       0.00010559477 -0.03754734 -0.040780533 4.9375252e-05
000020 90 46 14 bd 5b 89 f6 3b d4 0a 24 bd 46 48 d2 bc
       -0.036200106 0.0075236983 -0.04004939 -0.025669228
000030 d7 35 16 3c d6 2a 88 3c 8c f6 c0 3c f8 ab 09 bd
       0.00916811 0.016621988 0.023555063 -0.033611268
000040 70 2d cf bb 62 f5 6b bc d8 6d fc bc e7 6e 26 bd
       -0.0063225552 -0.014401766 -0.030814096 -0.04063311
000050 1a a5 e7 bc 96 2a 8f bc 53 28 39 bc 4b ef cb 3c
       -0.028276969 -0.017476361 -0.011301118 0.024894377
000060 63 52 37 3d a8 b0 f0 3c 11 f3 b4 3b e0 24 cc 3c
       0.044756304 0.029381111 0.00552214 0.024919927
000070 1e 7e 65 bc 5e 80 2a bb 51 31 b7 3c 94 d4 ce 39
       -0.014007119 -0.0026016454 0.022362383 0.00039449765
000080 9e fd 9e ba e2 5c 15 bd 38 66 a9 bb d2 c1 2b bd
       -0.0012130027 -0.036465533 -0.005169656 -0.04193289
000090 43 f3 69 3c aa 3b c2 bc 68 6c 95 bc 46 ac ac 3c
       0.0142791895 -0.02371009 -0.018240169 0.02107824
0000a0 18 36 bd 3c 8b a0 4d bc 91 6e aa 3b 81 50 d2 3a
       0.023097083 -0.012550483 0.005201169 0.001604572
0000b0 10 54 c4 3c 7c b5 18 bd 02 e6 8c bb 6e 3e 44 3b
       0.023965865 -0.037282452 -0.00429988 0.0029944438
0000c0 69 cb f8 bc 01 b3 3c bd 58 92 3a bd 18 59 21 bd
       -0.030370431 -0.04606915 -0.04554972 -0.039391607
0000d0 25 be 3a bd f4 6c 03 bd 54 e7 9a bc 38 dc e4 3c
       -0.045591492 -0.032086328 -0.018909134 0.02793704
0000e0 ac 41 69 3c e2 b3 6f bc 9f 7f a9 3b 68 41 20 bd
       0.014236849 -0.01463029 0.0051726843 -0.039124876
0000f0 47 76 38 bc e7 f2 90 3c 76 34 ef bb e1 a3 8f bc
       -0.011258668 0.01769395 -0.007299955 -0.017534198
000100 63 d2 c9 bc 90 13 0d bd f3 14 f7 3c 20 7a 99 bc
       -0.024636453 -0.034442484 0.030161357 -0.018734992
000110 49 9e 60 bd 2c d2 3d bd 8d 32 3a bd 31 19 94 bc
       -0.054838452 -0.046343014 -0.045458365 -0.018078418
000120 48 23 5e ba 5d 1a ac bc f4 e4 cc 3c 05 ef e0 bc
       -0.0008473885 -0.021008665 0.025011517 -0.027457723
000130 df 71 b2 bb 95 31 a6 3b fe f6 29 bd 71 fd f5 3c
       -0.0054457034 0.0050718286 -0.041495316 0.030028077
000140 4c 8f f1 ba 91 14 06 3c 42 04 3a bc 96 cf 66 3c
       -0.0018429547 0.008183614 -0.011353554 0.014087578
000150 0c b2 22 bc e8 2b e1 bc 4a e8 1e bc e0 13 dd bc
       -0.009930145 -0.027486756 -0.009698937 -0.026987016
000160 79 ad a4 bc c5 48 29 bd b2 f9 24 bb 75 e2 11 bd
       -0.02010225 -0.041329164 -0.0025173244 -0.035616357
000170 7e 99 5b bd aa 88 18 bd 26 3d 5f ba d3 5d da 39
       -0.05361318 -0.037239708 -0.0008515887 0.00041650105
000180 8e 3f b1 bc 01 de d9 ba c5 3e 95 3c ae 05 19 bd
       -0.02163675 -0.0016621948 0.018218407 -0.037358932
000190 c0 82 ee 3c 40 c2 ad bc 8e 41 51 bc 22 2b bf bc
       0.02911508 -0.02121079 -0.012771977 -0.023335997
0001a0 a3 cd 12 bc 13 fe a1 3a 94 a1 10 bd 2a 3b 6e bc
       -0.00896016 0.0012359045 -0.035310343 -0.014540473
0001b0 0c c0 9d bc b5 dd d1 b9 22 66 8e bb ff 21 e9 bc
       -0.019256614 -0.0004002877 -0.0043456713 -0.028458593
0001c0 e2 90 b6 bc db fb 75 3c 35 84 e4 bb 46 b7 ad 3b
       -0.022285882 0.01501366 -0.006973768 0.005301389
0001d0 28 27 b1 3c 94 0d 55 bc d5 a9 23 3c 2d b7 b3 bc
       0.021625116 -0.013003726 0.009989222 -0.021937931
0001e0 b7 dd c4 bc 8b 8c e9 3c e8 ba ae 3c 4b 99 39 bd
       -0.024031503 0.028509399 0.021329358 -0.045312207
0001f0 41 fc aa 3b 75 1a 22 bd ab f7 f1 3b 39 08 a4 3c
       0.0052180593 -0.039576013 0.0073842607 0.020023452
000200 a8 93 40 bd c4 f5 b5 bc 2a 55 9d 3c df 7b e2 bc
       -0.047015816 -0.022211917 0.019205648 -0.027646957
000210 0c e9 8e 3c 33 2e 2d bd c1 7e 22 bd 3d 40 3e bc
       0.01744511 -0.042280387 -0.039671663 -0.011611995
000220 50 13 3b 3c 1a 09 aa bc 16 69 88 bc 58 3e 29 bc
       0.011418179 -0.020756293 -0.016651671 -0.010329805
000230 99 f0 aa bc 97 bf 69 bc ef f8 85 3c 0c b4 60 bc
       -0.020866679 -0.01426687 0.016354052 -0.0137148015
000240 2f 3c 13 bd 04 92 89 3b cd ee df 3b d9 d8 b0 bc
       -0.035946067 0.0041983146 0.006833887 -0.021587776
000250 96 db 02 bd aa 8b 40 38 f0 b8 27 bd e1 0f f6 ba
       -0.031947695 4.590644e-05 -0.040947855 -0.0018773043
000260 cb 97 cb bc ed cf 03 bd 7e 46 20 bd 9d b4 19 bd
       -0.024852654 -0.032180715 -0.039129727 -0.037525762
000270 bc 17 c9 3c df 08 4d bb aa 7c 29 bd 83 5a 3b bc
       0.02454745 -0.0031285805 -0.041378655 -0.011435154
000280 f3 25 41 3c 04 ba 00 3d c6 85 cf bc 55 3a 09 bc
       0.011788833 0.0314274 -0.025332343 -0.008375724
000290 8f 32 f9 3c d1 e8 67 3c f8 dc 53 3c ec 31 68 3c
       0.030419616 0.014154629 0.012931101 0.014172059
0002a0 b8 61 2c bd 7c 15 89 bc 3c 64 8f 3c f5 3f 60 bc
       -0.04208538 -0.016733877 0.01750385 -0.013687124
0002b0 95 00 9d 3c e0 68 20 bc 00 97 22 bd bb 91 39 bd
       0.019165317 -0.009790629 -0.039694786 -0.045304995
0002c0 d9 aa c8 bc 34 ec 2f ba 54 9e 00 bd 83 fe 34 bc
       -0.024495529 -0.0006710917 -0.031400993 -0.011047008
0002d0 61 94 69 3c 9e bd 99 3c 02 c8 63 bc 96 33 a2 bc
       0.014256568 0.018767174 -0.013902666 -0.019799989
0002e0 36 f1 19 bd 54 8c 8a ba fb 81 bb 3c 61 b8 05 bb
       -0.037583552 -0.0010570385 0.022889128 -0.0020404088
0002f0 5d ea d0 bc b4 cd 0a 3d f0 b0 35 3d 2a 1a 00 bd
       -0.025502378 0.03388758 0.044358194 -0.031274952
000300 6d 1a ed bc 3e 01 07 bd ce 27 20 bc 21 d4 1d bd
       -0.028943265 -0.03296017 -0.009775115 -0.03853238
000310 fe 08 cb 3c d1 19 41 bd f4 14 af bc 42 78 e1 bc
       0.024784561 -0.04714376 -0.021372296 -0.027523164
000320 ee 45 07 bd 30 fc 01 bd 23 1d 58 bd 31 52 ab 3b
       -0.033025675 -0.031734645 -0.052762162 0.005228304
000330 6d 0d 1d bd 17 11 39 bc f2 cf e1 bc 0e b9 4a bc
       -0.038342882 -0.011295578 -0.027564976 -0.012373222
000340 f5 ef f5 bc bf 5e e0 3c cd 44 4e bd 99 08 cd bb
       -0.030021647 0.027388928 -0.050358582 -0.0062571284
000350 a8 47 bd bc 17 5e 23 3c 48 52 51 bb b3 58 bc bc
       -0.023105457 0.009971163 -0.0031939913 -0.022991514
000360 9c cc 74 3c 0a 88 3b bb dc 31 c6 3c 0c 5c 91 bb
       0.014941361 -0.002861502 0.024193697 -0.0044360217
000370 69 f1 12 bd 0c c4 ac 3c 4f 03 07 bd c3 9c 1a 3a
       -0.035874758 0.021089576 -0.03296214 0.0005897993
000380 43 8b ac 3c 33 ec 22 bd e6 01 a6 3c b3 37 dc bc
       0.021062499 -0.03977604 0.020264577 -0.026882028
000390 1c 35 8c bb 1c 2b 0e bc 79 bb 4a 3c bd 32 1c bb
       -0.004278792 -0.00867727 0.0123737985 -0.0023833953
0003a0 9e 07 37 bd 02 c3 4c bc 95 f7 7f 3c 9f 11 22 bd
       -0.044685 -0.012497665 0.015622993 -0.039567586
0003b0 6e 07 a8 3a 43 9a a2 bc d5 4f 9e 3b 27 50 9e bc
       0.0012819597 -0.019848948 0.004831294 -0.019325329
0003c0 16 97 18 bd 83 b8 20 bd 8d dd e3 3b 6a a7 c7 bc
       -0.03725346 -0.039238464 0.006953901 -0.024371821
0003d0 10 e0 64 bd 3d 0e 05 3d 0b e3 38 3b 74 eb b5 bc
       -0.055877745 0.03248428 0.00282115 -0.022207
0003e0 f7 7f 53 bb e0 0e bf bc 78 59 c0 3c bb 23 70 bc
       -0.0032272318 -0.023322523 0.023480162 -0.014656956
0003f0 ee 1d 2c bd 95 bb 9c 3c 8a 67 4a bd 7f b4 d7 3c
       -0.04202073 0.019132415 -0.04941515 0.026331184

weight f4 [10, 256]
000000 fd 89 66 bc 8d a8 14 bc 03 a9 66 3d c6 5b 8b 3a
       -0.014070985 -0.009073389 0.056313526 0.0010632209
000010 f7 f0 09 be d5 b0 cb bb e2 1a dc 3d dd 3b 8c 3c
       -0.13470827 -0.0062161484 0.10747315 0.017118389
000020 9b 49 00 3e 9a 46 77 be b7 c3 80 3c a5 bf 75 3d
       0.12528078 -0.24148026 0.015718324 0.05999722
000030 75 f3 90 bd e7 06 27 3d 91 dd 9e bd 9e 50 53 3c
       -0.07077686 0.040778067 -0.07757104 0.012897639
000040 36 db f7 3c ff 5c 4d bd 0b 39 ed 3c 96 31 3b 3d
       0.030255895 -0.050137516 0.028957864 0.045701586
000050 be 3e 22 3d 91 53 53 bd 68 d8 0a bc 88 de 8f 3d
       0.039610617 -0.051593367 -0.008474447 0.07024866
000060 94 18 8b 3d e1 09 49 3d d5 3b cc 3c 2c 4a aa be
       0.06791797 0.049081687 0.024930874 -0.33259714
000070 cd 83 34 bc ec 02 11 3d 9d 57 08 3d ff ff 90 3d
       -0.011017752 0.035403177 0.03328668 0.070800774
000080 78 ef 19 bd d2 94 63 bd 5b 32 1a 3b 6e 84 06 3e
       -0.03758189 -0.055561848 0.002352855 0.13136455
000090 a4 30 63 3d 4c 74 85 bc 60 2e 4a bd 0b 0d 92 3c
       0.05546631 -0.016290806 -0.049360633 0.017828485
0000a0 d7 0b e6 bc 37 a6 8f bc 71 48 e3 3a fc a9 03 3d
       -0.028081818 -0.017535312 0.0017340315 0.03214453
0000b0 dc 9b e5 bd 6e 02 4e 3c ff 33 40 bd 75 d8 08 3d
       -0.112113684 0.0125738215 -0.046924587 0.033409555
0000c0 dd 5f 4a bd cf 96 94 bd cf 95 8d be 7d 39 d5 bc
       -0.04940783 -0.07255327 -0.27653357 -0.02602839
0000d0 8c 88 0d 3c f7 07 ad 3d 23 2e ac 3d df bb df 3d
       0.008638512 0.08448785 0.084072374 0.109245054
0000e0 3d ae ea 3d 2a 82 3f bd 21 f1 ee be ce 3e 23 3c
       0.114590146 -0.046754993 -0.46668342 0.009963704
0000f0 22 98 72 bd 35 44 66 3c 3b 45 5e 3d 24 97 a5 3d
       -0.059227116 0.014054348 0.054265242 0.080854684
000100 b2 6f c8 3c 4c 4d 40 3d 9a a5 16 3e 5a 52 64 3c
       0.024467323 0.046948716 0.1471161 0.01393565
000110 12 19 08 be cd 2c 2a be b7 a3 9b 3d b9 6a 72 bb
       -0.13290814 -0.16618653 0.075995855 -0.0036989881
000120 4d 33 03 3d 9f 80 cb 3d d9 4a 16 be d0 58 b8 bd
       0.032031346 0.09936642 -0.1467699 -0.09001315
000130 a7 16 16 3d 61 ab 9c bb 96 32 dd 3d ff e5 8c 3d
       0.036642697 -0.004781172 0.10800664 0.06879806
000140 98 17 cb 3a 60 a7 15 bd cc 61 da bc 33 45 c2 3c
       0.0015494702 -0.036536574 -0.026657961 0.023714637
000150 6a a5 8e 3c 00 d3 b1 3c 54 cf 45 3d 92 e4 f0 bd
       0.01741286 0.021707058 0.048293427 -0.11762346
000160 05 6a 2d bd 11 89 07 3d e7 c6 54 3d 15 e1 ad 3d
       -0.042337436 0.0330897 0.0519475 0.084901966
000170 6c 9f 37 be 6b 02 3a bd e6 b7 60 bd c3 25 e6 bd
       -0.17931908 -0.045412462 -0.05486288 -0.11237671
000180 91 c7 38 3e 5b 2b a8 be 3f f1 d5 bc e0 9b b2 3c
       0.18044879 -0.32845578 -0.026116012 0.021802843
000190 63 38 0b bd 3a 47 54 bd ab e1 88 bb 3f 1b aa 3d
       -0.03398932 -0.05182574 -0.0041772923 0.08305978
0001a0 9a 9e 4e 39 57 ff c0 bc f8 c1 1f 3d 2d a6 c3 bc
       0.00019704775 -0.023559256 0.039003342 -0.02388295
0001b0 58 a8 57 3d 8a dc 8a 3d ed 6c b2 3c 37 1c d0 3d
       0.05265078 0.06780346 0.021780455 0.101616316
0001c0 18 91 0d 3d cf b9 9b bc 71 56 6b 3d 0f 4b 83 bc
       0.0345622 -0.019009499 0.057455484 -0.016027002
0001d0 4b 9f b7 3d 88 f2 24 bd bc c3 09 3c cd 70 f5 3d
       0.089659296 -0.04027036 0.008408483 0.11984406
0001e0 b3 2a a4 3c 8b 85 38 bd ff 2c f4 bd 12 f1 18 be
       0.020039892 -0.04504923 -0.11922645 -0.14935711
0001f0 19 6d 96 be a3 ff 27 be 1b ab f6 bd 8f 71 29 be
       -0.2938011 -0.16406111 -0.120443545 -0.16547225
000200 50 12 50 be b8 ec 3f bc c5 d1 cc 3d 4d 52 0b be
       -0.20319486 -0.011714153 0.10000948 -0.13605614
000210 e7 06 0c be f5 9f 82 be d8 7d 6a bd 46 c9 ac bd
       -0.13674508 -0.25512663 -0.05724892 -0.08436827
000220 5a 85 b5 3a 3f 6a 78 bd 01 d6 51 3c 56 99 2b be
       0.0013848946 -0.0606482 0.01280737 -0.16757712
000230 a1 5b df bd 1a 53 91 3d f3 91 0e 3d cf 12 a3 3c
       -0.10906149 0.070959285 0.034807157 0.01990643
000240 32 d5 90 bc 71 ae 03 bd 64 fc b5 3c 36 4c 14 bd
       -0.017679784 -0.032148782 0.022215076 -0.036205493
000250 41 81 44 3d 6e 28 76 3d da 4b bf bd b8 45 03 3d
       0.04797483 0.06009715 -0.093406394 0.03204891
000260 89 c4 30 be 69 ca fd 3c a3 44 96 3d 6e ce b4 3b
       -0.17262472 0.030980306 0.0733731 0.0055177724
000270 93 d5 33 3d 46 44 94 3c 5b f9 ce bd d6 bb 30 bc
       0.043904852 0.018098962 -0.101061545 -0.010786971
000280 96 8b 7d 3d 23 88 62 bd 95 28 5c bd 3b 7a 34 3d
       0.061900698 -0.05530561 -0.05374964 0.04406188
000290 4d e9 02 be d2 e0 44 3c e7 01 59 bc 7a f7 da bb
       -0.1278431 0.012016492 -0.013245082 -0.0066823335
0002a0 6e ac 6e 3d 63 95 62 be ac 4a c9 bd eb 6b 5a bd
       0.05826991 -0.22127299 -0.09828696 -0.053325575
0002b0 39 f1 e9 bd 7b b4 66 3d 6d fa 6c 3d 1b 98 c0 bd
       -0.11422963 0.056324463 0.057856012 -0.09404012
0002c0 13 a2 4a be d9 9f 4b be e7 4f a1 bd f1 93 f4 3d
       -0.19788389 -0.19885196 -0.07876568 0.1194228
0002d0 d6 86 ec 3c 98 da 06 bd 48 01 f1 3c 1a d9 06 3e
       0.028872889 -0.03292331 0.029419556 0.13168755
0002e0 88 ff 22 be 71 0d 1f 3d 60 8e 4c bd ff c5 82 be
       -0.1591779 0.038831178 -0.049940467 -0.25541684
0002f0 6c a1 a4 bb fb 14 a2 3d 04 5c 76 3e 43 d0 48 3d
       -0.005024126 0.07914158 0.24058539 0.04902674
000300 55 3e ac 3b 67 52 84 bd a1 0c 96 3c 76 ae 94 bc
       0.005256454 -0.064610295 0.018316569 -0.018149596
000310 9f 37 89 3d d4 81 65 3d 2f 0e 8d be 0b b9 a3 3d
       0.06700062 0.056032017 -0.27549884 0.079942785
000320 73 b8 4b 3d f6 18 38 bd 4d 8b d3 bd 57 9f e3 38
       0.04973645 -0.04494568 -0.10329304 0.00010853883
000330 64 fc 36 3d 46 a8 b9 bd 93 7f f0 3d cc 01 4e bd
       0.044674292 -0.09065299 0.11743083 -0.050294682
000340 3f 8f 47 be 57 6c 69 bd 3a 54 85 3d 64 db 93 bd
       -0.19488238 -0.056988087 0.065102056 -0.0721958
000350 20 6c 5c bd d7 d1 57 3d 63 6a 23 3d ee f5 e5 bd
       -0.053814054 0.052690353 0.03989638 -0.11228548
000360 cd 48 13 be f3 29 14 bc 80 fb 8a 3d 62 25 16 bd
       -0.1438324 -0.009043205 0.06786251 -0.036656745
000370 60 ec 41 bd 6f 91 85 bd 48 07 95 3b 35 54 5c be
       -0.047344565 -0.0652188 0.004547987 -0.21516497
000380 54 a1 ac bc a4 95 92 3c 2e 1f 77 bd 12 25 e8 3d
       -0.021073021 0.01789362 -0.06033247 0.113351956
000390 8c c0 fe bd 0d e2 ce 3d 4f b7 00 3c a0 5a 02 3d
       -0.12439069 0.101017095 0.007856204 0.031824708
0003a0 54 e5 6b be bc 45 fd 3c 8c 60 61 bd 80 75 64 bc
       -0.230367 0.030917041 -0.055023715 -0.01394403
0003b0 7c 4f bb bd 52 92 42 bc 82 32 37 3d 27 ed 12 3e
       -0.0914602 -0.011875706 0.044725902 0.14348279
0003c0 44 f4 d7 3d 05 fb 7c be 70 4f 39 be 32 90 27 3d
       0.10544637 -0.24705131 -0.18096709 0.040909
0003d0 3f bf ea ba 6e da 27 3d da 22 6f 3e 1a bd a9 3c
       -0.0017909779 0.040979795 0.23353139 0.020720053
0003e0 3a ff d0 3d b5 a2 8b bc 4a 9a e6 3d 47 53 ed 3d
       0.102049306 -0.017045358 0.11259897 0.115881495
0003f0 a7 0e d5 bd 9e 41 bf 3d 4d 5e 4d 3c 42 7b 52 ba
       -0.10403185 0.09338687 0.01253469 -0.0008029231

bias f4 [10]
000000 e0 73 85 bc 80 96 13 bc 04 43 b6 bd 25 7f 28 3d
       -0.016290605 -0.00900805 -0.08899501 0.04113688
000010 01 16 4b 3d 24 1b 87 bd 81 6e 8a bd d0 37 d2 bd
       0.04958153 -0.065969735 -0.06759358 -0.10264552
000020 44 93 4f 3e db c4 56 3c
       0.20271021 0.013108457
